checkpoint_critic.pth (torch_old, 525802 bytes, 5 tensors)

fcs1.weight f4 [400, 24]
000000 ff fa 50 bd 7e f8 ff 3e 0f a8 8c bc 3a db 13 bd
       -0.05102062 0.49994272 -0.01716998 -0.036097743
000010 c5 37 93 3e 07 9e 02 bf ab 9f e5 bc 7a 86 c4 3a
       0.28753486 -0.5102238 -0.028030237 0.001499369
000020 25 b7 ce 3d 13 02 03 3f ae 99 a3 bc 21 01 86 be
       0.10093526 0.5117504 -0.019970741 -0.26172736
000030 78 a1 e4 3d d1 a8 db bd 85 52 02 3c b1 13 8c be
       0.1116361 -0.107255585 0.0079542445 -0.27358773
000040 2c 93 30 3e 35 2d f8 3e c4 40 c7 bc f1 da a4 bd
       0.17243642 0.4847199 -0.024322875 -0.08049572
000050 89 9c 30 3f 8d e8 00 bf 2e 04 fb ba a5 76 96 bd
       0.68988854 -0.50354844 -0.0019151026 -0.073468484
000060 53 87 df 3c 21 bf 19 bf 21 71 8d 3c 13 23 b8 bc
       0.027286207 -0.60057265 0.017265858 -0.022477662
000070 c5 c6 7d bf eb 26 ee be d2 f7 83 3c 03 c8 bb bc
       -0.99131423 -0.46514067 0.01610938 -0.022922521
000080 cf 38 ad 3e 53 49 04 bf 91 e4 79 3c 0f 69 98 3b
       0.33832404 -0.51674384 0.015252248 0.004651196
000090 cf 67 ef be 12 36 92 be 5b 43 b1 bb cd dd 55 3d
       -0.46758887 -0.28556877 -0.0054096407 0.05221348
0000a0 ff 7b 39 3f 36 cb d2 be 82 9c 66 bd 48 30 a9 3c
       0.7245483 -0.41170663 -0.0563016 0.020652905
0000b0 b3 e1 09 3f d2 c3 08 3e 85 ba e9 3c bf 40 01 3c
       0.53860015 0.1335595 0.028531322 0.007888972
0000c0 d9 31 94 3e 53 7c 2e 3d a4 34 8d 3c 27 d3 5e bc
       0.2894428 0.042599034 0.017237015 -0.013600147
0000d0 c0 cf 75 3e 70 f8 c5 bf e2 61 c9 bc c1 83 20 3c
       0.24005032 -1.5466442 -0.024582807 0.009797038
0000e0 e1 cf ed 3d 60 4c c1 bd 13 fa df 3c 9c e0 bc bd
       0.116119154 -0.094383955 0.027340924 -0.09222528
0000f0 23 23 04 3e 50 36 10 bf b3 0b 9c bc 51 35 86 bd
       0.12904029 -0.56332874 -0.019048547 -0.06553138
000100 d5 a0 ce 3e 85 18 02 be 7a 3e 1d 3c b3 ff 1e 3d
       0.4035708 -0.12704666 0.009597415 0.038818073
000110 04 89 61 3e 8e 15 36 c0 40 d7 c7 bb 98 41 7f 3a
       0.22024924 -2.8450656 -0.006098658 0.0009737252
000120 4e 27 2e 3e 88 35 b7 3e e4 c6 24 bd 59 23 00 3e
       0.17007181 0.3578303 -0.04022874 0.12513484
000130 8a ca a5 be 0f 4c 10 3f a5 ad 7f 3c f9 b9 c4 3d
       -0.32381088 0.56366056 0.015605365 0.09605784
000140 ae bf bd 3e 03 d0 90 3e 1b 7d 3b bd 85 89 28 3e
       0.37060302 0.282837 -0.045773607 0.1645871
000150 37 ea 91 be eb df 19 bd eb 0c 8b 3c 21 53 0c 3e
       -0.28499004 -0.03756706 0.016973933 0.13703586
000160 3d 73 0c 3f c8 99 b9 3e 44 07 54 3d 02 d6 f6 bb
       0.5486334 0.36250138 0.05176474 -0.007532836
000170 a9 1d b0 be f2 61 32 bf 0f 68 a5 3c bf 2b 2c 3d
       -0.3439763 -0.696807 0.02019122 0.042033907
000180 86 b2 55 bd 35 86 d0 3e 15 c7 89 3a 5d 3e f1 3d
       -0.052172206 0.40727392 0.0010511602 0.11779473
000190 c6 62 35 3e ae 08 15 be 16 5f 8f bc ba 9c 82 3d
       0.1771346 -0.14554092 -0.017501395 0.063775495
0001a0 0f 99 2c 3e be 9a 9c 3e 71 9d 2f bd fb d5 26 3e
       0.16855262 0.3058681 -0.042874757 0.16292565
0001b0 3f d7 05 3f 5c d2 54 3e 68 2f 07 3d f4 69 d2 3d
       0.52281564 0.2078337 0.033004194 0.10274115
0001c0 26 91 5f 3f 24 f5 00 3f e9 11 85 3c b5 c7 06 3e
       0.87330854 0.50374055 0.016243892 0.1316212
0001d0 e5 19 bf 3d cc 99 66 3f ed bf 72 3c 01 9f 29 3e
       0.09331111 0.90078425 0.0148162665 0.16564561
0001e0 70 7c bb be 32 55 6e be 98 8b 0a 3c ac e5 c1 3d
       -0.36618376 -0.23274687 0.008456133 0.094676346
0001f0 0c 5b 10 3f 63 0c c5 bd 72 e6 4a bc aa 30 e9 3d
       0.56388927 -0.09621503 -0.012384044 0.11386235
000200 41 c1 fe 3e b0 d0 72 bd 6e 13 0c bd 61 52 12 3e
       0.49756816 -0.05928105 -0.034198217 0.14289238
000210 74 79 07 3e 80 46 a5 3d 3e 63 4d bc 7d 50 24 3e
       0.13229924 0.080700874 -0.012535868 0.16046329
000220 66 6f 9c 3f 94 9e f6 bd f9 50 5c bd cc 79 df bd
       1.2221496 -0.12041965 -0.05378816 -0.10911903
000230 84 f7 0b be e6 7d 67 3f 7a 8f 96 bd e0 5f 20 be
       -0.13668638 0.9042648 -0.07351585 -0.15661573
000240 8d af 9c 3e 7b 6a 56 3f d9 8b ef bc 53 ad bd 3e
       0.30602685 0.83756226 -0.02924149 0.37046298
000250 c2 9d 2a bf 1c c5 f7 be 17 bc 52 bd 25 e3 9b 3e
       -0.6664697 -0.4839257 -0.051448908 0.30446735
000260 be 1e b8 3e 86 74 73 3f 52 69 97 bc 21 f2 57 be
       0.35960954 0.95099676 -0.018482838 -0.21088459
000270 95 ef e4 be ea c4 e3 be 42 49 44 bc a4 dd 5d be
       -0.44714037 -0.4448617 -0.011980357 -0.2166658
000280 63 d7 0a 3f 08 61 3e 3f 1a 42 57 3c 2f 88 d9 be
       0.54234904 0.7436681 0.013138318 -0.42486712
000290 96 01 af 3b ee f7 88 be 31 49 a0 3c 89 43 b8 be
       0.005340765 -0.26751655 0.01956615 -0.35989025
0002a0 db 91 6a 3e 2b 16 59 bf 62 35 83 bc de 3e 82 3c
       0.22907202 -0.8479945 -0.016016666 0.015899118
0002b0 54 7d 3f 3f ad c7 c0 bd 64 0d 7e 3b ed 1f 23 3d
       0.7480061 -0.09413085 0.0038765306 0.03982537
0002c0 f4 46 dc 3e 66 91 82 bf 11 f5 9b 3c 49 d4 9d 3d
       0.43022883 -1.0200622 0.019037755 0.07706506
0002d0 96 0e 5c bd 6f 17 04 bf 8d 9e df 3c c5 ea c8 bb
       -0.053724848 -0.51598257 0.027297283 -0.0061315023
0002e0 06 50 98 3e 38 20 98 bf 9c 5f 9c bd 96 33 7e 3e
       0.29748553 -1.1884832 -0.076354235 0.24824366
0002f0 1f 05 3b bf 3d 30 70 be 0d dc 64 bb df 34 85 3e
       -0.7305469 -0.23455901 -0.00349212 0.260169
000300 85 be b9 bc c3 48 ab be 5d 48 97 3c 55 21 12 3e
       -0.022673855 -0.3345395 0.018467123 0.14270528
000310 cb ff 46 be b0 aa af bf 4a 49 ce bc e6 c1 4c 3e
       -0.19433515 -1.3723965 -0.025181431 0.19995841
000320 55 fa 33 bd df 5a d7 be 85 5e 2c 3c a7 84 2d 3d
       -0.043939907 -0.42061517 0.010520582 0.042362835
000330 81 b1 98 3d 87 a6 f3 bf 34 20 b4 3c fd 92 24 bd
       0.07455731 -1.9035195 0.021988012 -0.04017924
000340 d8 83 23 be 87 79 cd be 33 c5 d0 3b 72 e8 53 be
       -0.15968263 -0.4013178 0.006371164 -0.2069414
000350 8f 05 40 3e 7a af 69 bf 4e 3b 57 bd c7 81 36 be
       0.1875212 -0.9128338 -0.05254679 -0.17822944
000360 af a8 16 be 71 78 66 be 83 01 20 3c f3 9c 1f bd
       -0.14712785 -0.22506882 0.009765985 -0.038968038
000370 45 26 49 be db 26 8c bd 40 c2 a0 bc f2 d8 18 3d
       -0.19643505 -0.068433486 -0.019623876 0.03731627
000380 e9 17 86 3e 68 55 18 be 23 48 5b bd ce d9 ec bc
       0.26190117 -0.1487633 -0.05353559 -0.028912451
000390 45 cb 50 be 58 52 a8 bd ad ca 4e bc 02 46 80 bd
       -0.20390041 -0.08218831 -0.012621564 -0.06263353
0003a0 0a 05 12 3f 97 df 51 be a2 66 4e bd e4 b2 58 3d
       0.5703894 -0.20495449 -0.050390847 0.05290498
0003b0 d9 7e 0f bf 9c 8a df 3e 4d 8c 21 bc 69 68 ba 3d
       -0.5605293 0.43660438 -0.0098601105 0.09101946
0003c0 88 6e 24 be eb c5 0d 3f 36 ce 34 3b 64 88 03 3e
       -0.1605779 0.55380124 0.0027588732 0.12844998
0003d0 67 47 98 3c d5 6b 14 3e 7c dc 8a bc 84 18 01 3e
       0.018588735 0.1449426 -0.016950838 0.12607008
0003e0 ba 59 f4 3d 51 ef 37 3f e7 18 43 3d 77 97 f2 3e
       0.119311765 0.7184954 0.04763117 0.47381184
0003f0 1e 11 75 be 62 df 0b c0 56 cc 1d 3d db 5c f2 3e
       -0.23932311 -2.1855092 0.038524948 0.47336468

fcs1.bias f4 [400]
000000 c4 b9 de bf b7 a6 7c be be e5 08 be 96 d3 3e 3f
       -1.7400441 -0.24672972 -0.1336889 0.74541605
000010 48 17 3a be 86 6a 78 bf 4c 9c 3e be 84 d9 f7 3d
       -0.18172944 -0.9703754 -0.1861431 0.12102035
000020 40 f7 ed be b1 fb c8 bf ba b5 2e be 1a a5 fe be
       -0.464777 -1.570181 -0.1706151 -0.49735337
000030 ef 03 ca be a0 70 f7 be 50 a6 88 bf 07 57 75 3d
       -0.39456126 -0.48328114 -1.0675755 0.05989745
000040 a0 49 24 bf 2c ad f1 be b3 46 60 be dc df 16 bd
       -0.6417484 -0.47202432 -0.2190197 -0.036834583
000050 c6 97 d5 be ff e0 bd be 76 91 bd be 6b 90 77 be
       -0.41717356 -0.3708572 -0.3702504 -0.24176185
000060 38 1d c2 be ed bc 17 bf 50 8c 0c be 8f ca b9 bd
       -0.37912917 -0.5927265 -0.137254 -0.09071838
000070 0f 56 c9 3c 12 4c a1 bf 83 5d de be e6 60 a3 3e
       0.024577169 -1.260134 -0.4343072 0.31909865
000080 aa 90 39 3e 46 ff 59 bd 0b 77 95 bf 68 93 a9 bf
       0.18121591 -0.053221963 -1.1676954 -1.324811
000090 28 a0 4b bf a6 2e 30 be 5c f5 c1 b9 41 8d 08 bf
       -0.79541254 -0.17205295 -0.00036994636 -0.53340536
0000a0 bb 32 e8 3d c0 08 8c 3c f4 7b 90 3f f4 73 12 bf
       0.11337801 0.017094016 1.1287827 -0.5720818
0000b0 7e 76 75 bf cb d3 12 3f 2f 9a d6 3e 11 c3 41 3d
       -0.9588393 0.5735442 0.41914508 0.04730517
0000c0 d1 5c ce 3e 34 81 be 3e a2 2a 83 3e 16 74 83 3e
       0.40305188 0.3720795 0.25618464 0.25674504
0000d0 70 e7 7d be 3a a4 3f bf 2e 99 7a bf ac 56 3b bf
       -0.24795318 -0.74859965 -0.97889984 -0.73179126
0000e0 0d e0 4a bf 71 c5 1d bf c4 df 20 bf 16 12 6a bf
       -0.79248124 -0.61629397 -0.6284144 -0.91433847
0000f0 40 3c ac be 71 37 8e bf a2 ca 72 bd 60 63 12 bf
       -0.33639717 -1.1110669 -0.059275277 -0.57182884
000100 04 a6 3f 3f 20 83 86 be 3c fa 35 be 4d e5 53 bf
       0.74862695 -0.26271915 -0.17771238 -0.8277176
000110 5d 70 ad bf f7 4d 21 bf f7 73 52 bf b7 8c 22 3f
       -1.3549916 -0.6300959 -0.822082 0.63495964
000120 a9 9a 2f bf d3 36 b3 be 17 2d 0b bf cf 49 11 bf
       -0.6859537 -0.35002765 -0.54365677 -0.5675325
000130 c0 e9 4e bf cf 4a b5 3e a0 26 1f bf 87 92 a9 bf
       -0.80825424 0.35408637 -0.6216831 -1.3247842
000140 ff d9 67 bf 6a de ce be 29 62 0c be aa ed dc 3e
       -0.9056701 -0.40404063 -0.1370932 0.43150073
000150 2c e3 45 bf dd 06 25 3f b2 ff 0b 3d 1a 01 96 bf
       -0.7729976 0.644636 0.034179397 -1.1719086
000160 29 37 ca bf 0a 21 bf be 4e c6 af bf c8 a8 18 3e
       -1.5798084 -0.37329894 -1.3732393 0.14908135
000170 72 f7 3e bf dd 65 81 3e 7f 2b ae bb 6a 6c 29 bf
       -0.7459632 0.25273028 -0.0053152437 -0.6618105
000180 ee bd 92 bf 9c 92 14 3e 2d e2 b6 be ca 09 20 bf
       -1.1464212 0.14509052 -0.35719433 -0.62514937
000190 2a 2f 5f bf d0 a7 cb be a1 d9 1c bf af a2 92 bf
       -0.8718134 -0.39776468 -0.61269575 -1.1455897
0001a0 f6 b0 55 3f 96 86 98 be 19 33 cd 3e b4 85 1c 3e
       0.83473146 -0.2979018 0.40078047 0.15285379
0001b0 cd 2b 3b bf 80 66 93 be fa ed ff be 9d 51 3e bf
       -0.7311371 -0.2878914 -0.4998625 -0.7434328
0001c0 4e 16 12 bf ee 34 cf 3d 38 3c 0d bf 2a e0 46 bf
       -0.57065284 0.101175174 -0.5517001 -0.776858
0001d0 bf 66 94 be 5c b3 d8 3c f0 f5 4a bf e4 50 a0 3e
       -0.2898464 0.026452713 -0.7928152 0.31311715
0001e0 a8 73 13 be d7 96 9b be f2 e5 14 bf 44 98 bf 3e
       -0.14399588 -0.3038852 -0.5816337 0.37420857
0001f0 da 3f 88 be 0b af a9 bf f0 8e 86 bf 78 4c c3 3e
       -0.26611215 -1.3256544 -1.0512371 0.3814428
000200 6a d7 4c bf f5 f8 b5 3c a2 cb 8d 3e 34 a7 88 bc
       -0.80016196 0.022213439 0.27694422 -0.016681291
000210 27 f6 8d be 47 88 8e be 11 0c df 3e 44 5b 04 bf
       -0.27726862 -0.27838346 0.43563893 -0.5170176
000220 1d 89 4a bf 35 e5 24 3d e9 90 ed 3c 15 74 e3 be
       -0.7911547 0.04025765 0.028999763 -0.444245
000230 ea e0 3b 3e fd 04 c5 be 3f eb 11 bf db 8e 33 bf
       0.18347517 -0.38480368 -0.5699958 -0.70139855
000240 d8 67 68 bf 05 41 16 be 8d da 95 bf 67 be 04 be
       -0.90783453 -0.1467324 -1.1707321 -0.12963258
000250 e4 77 1f bf 0c 6b 3a bd de 44 06 be 27 88 a6 bd
       -0.62292314 -0.045512244 -0.13112208 -0.08131438
000260 93 81 0c 3d 63 81 96 bf 8f 51 04 bf 63 c3 11 bf
       0.03430326 -1.1758236 -0.5168695 -0.5693876
000270 a6 fe 94 bf cf 8a 7c be 49 85 10 bd ea f6 13 bf
       -1.1640213 -0.24662326 -0.03528336 -0.57798636
000280 6f 09 0c bf b0 44 70 bf b8 64 8c bf cd 13 9d 3e
       -0.54701895 -0.9385481 -1.0968237 0.3067917
000290 41 35 69 bf 7a be 3d be 12 72 69 bf f2 63 ed be
       -0.91096884 -0.18529692 -0.9118968 -0.46365315
0002a0 74 c3 66 bf 74 dd 5f be d1 84 2b bf 8f 04 9f be
       -0.9014199 -0.21861821 -0.66999537 -0.31058165
0002b0 a3 1d 58 bf 1d 22 30 bf bf 9d 93 bf ce 49 53 bf
       -0.8442022 -0.6880205 -1.1532515 -0.8253449
0002c0 87 ff 54 be 18 71 0b bc bd 33 47 bf 02 d7 97 bf
       -0.20800601 -0.00851085 -0.7781332 -1.186249
0002d0 d3 ea 53 be 7c e4 c3 bf 7c 19 83 3e 21 c8 13 3f
       -0.20695047 -1.5304103 0.2560538 0.5772725
0002e0 db a3 0a bf bb df 5e be f0 98 34 bf a8 4b 6b bf
       -0.54156274 -0.21765034 -0.70545864 -0.9191232
0002f0 7c 1f 41 bf 0f b6 50 be 64 19 27 bf 1c 8b 13 bf
       -0.75438666 -0.2038195 -0.6527312 -0.5763414
000300 0b 04 e8 be a9 2b 2b bf 35 cd 7a bf ed e2 b7 be
       -0.45315585 -0.66863495 -0.9796937 -0.35915318
000310 48 cb 3f bc 42 aa db bf 44 3e 42 bf 62 63 02 bf
       -0.011706181 -1.7161334 -0.7587626 -0.50932896
000320 7b 11 9d be 0f 74 05 bf 58 ac 57 bf 81 b4 2a 3e
       -0.306774 -0.52130216 -0.8424735 0.1667042
000330 52 b6 10 be c9 eb e5 be 38 67 4e bf 9f 40 8b be
       -0.1413205 -0.44906452 -0.8062625 -0.2719774
000340 4c 9a be 3c d1 3b 3b 3f 73 77 5d 3b 43 3e 89 be
       0.023266934 0.7313815 0.003379312 -0.26805314
000350 85 8c 5b 3f c1 1e 06 3e 60 f2 e1 bf 5f 08 3c bc
       0.8576129 0.13097669 -1.7652092 -0.011476605
000360 07 fe 18 bf c2 98 a5 be ba 39 0e 3e e1 83 15 bf
       -0.59762615 -0.32343107 0.13889208 -0.58404356
000370 e1 2f eb 3c 6d e2 e6 be fd f7 51 be 62 d4 00 bf
       0.028709354 -0.45094624 -0.20504756 -0.5032407
000380 86 50 06 bf 67 30 41 bd 6c f6 0f bf 6a a5 ae bf
       -0.5246662 -0.0471653 -0.56235385 -1.364423
000390 6f 89 8a 3e ed 3a 38 bf f8 31 d0 be a8 b0 5a bf
       0.2705798 -0.71964914 -0.40663123 -0.85425806
0003a0 cf 68 4a bf f2 30 27 3e 8a 23 a6 3e 59 f2 18 bf
       -0.79066175 0.16327265 0.3244899 -0.59744793
0003b0 cc 0b 00 3e be 2c a6 bf 54 ac 2d be 67 39 0d 3e
       0.125045 -1.2982404 -0.16960269 0.13791429
0003c0 4e b4 5f 3f fd ef 67 bf cd 3f 8e bd 80 57 0d 3f
       0.873845 -0.9060057 -0.06945763 0.5521164
0003d0 83 50 0a 3f d7 90 16 3f 5f 73 f5 3e f4 35 24 be
       0.540291 0.5881476 0.47939584 -0.16036206
0003e0 48 49 48 3e fe 40 3e bf 88 ab 1a bf 02 ad 5b bf
       0.19559205 -0.7431792 -0.60417986 -0.85810864
0003f0 87 f0 81 bf 61 d8 a6 be 62 c9 1f bf 1d cb 39 bf
       -1.0151528 -0.3258696 -0.6241666 -0.7257555

fc2.weight f4 [300, 402]
000000 c7 cd 00 bc 99 1e 67 bd 74 e8 31 bd f8 bf 00 bd
       -0.007861561 -0.056425665 -0.043434575 -0.031433076
000010 f5 14 f0 3c 26 3c 1e 3d 94 66 84 bc 63 c9 de bb
       0.029306868 0.03863158 -0.016162194 -0.0067989095
000020 ed a2 f4 3c 92 13 03 3d c2 89 87 bc 71 f4 67 bb
       0.029862845 0.032001086 -0.01654518 -0.0035393501
000030 d4 76 36 bc fa c6 5a bd 8a 00 9e bd 9c fb 17 3d
       -0.011136729 -0.053412415 -0.077149466 0.037105188
000040 ab 7f 22 3b 73 2f 44 bd b2 b1 f4 bc 21 92 1e 3d
       0.0024795334 -0.047896814 -0.029869888 0.038713578
000050 5b c9 91 bc 30 c6 9b 3c f8 b7 06 bd cf 90 a8 bc
       -0.01779621 0.019015402 -0.03289029 -0.020576863
000060 9a a7 03 bd 04 d3 9c 3b ec 79 c5 bc 09 1f e2 3b
       -0.03214226 0.004785897 -0.024105988 0.0069006723
000070 1f a7 e4 bb bf a1 ee bc ad 76 7a bd b5 a6 71 3c
       -0.00697793 -0.02912986 -0.061148334 0.014749219
000080 bf cd 9d bd 4d 3f 84 39 ae b9 86 bc 13 87 c3 3c
       -0.077052586 0.00025224165 -0.01644596 0.02386812
000090 21 89 c6 bc 84 dc 1c 3d 98 b2 81 bc de e5 85 bd
       -0.02423531 0.038296238 -0.01583223 -0.06537984
0000a0 90 16 ab 3c 06 a4 07 bd 54 65 cd 3c a6 f3 fa bc
       0.020884782 -0.03311541 0.025072731 -0.030633759
0000b0 7b 8d 56 bd 4a 13 47 bd 48 7b 40 bd 63 82 39 bd
       -0.05238102 -0.04860238 -0.04699257 -0.045290362
0000c0 37 ee 26 3d 8f c2 23 bd cb 4e cf bc cb 62 03 bd
       0.040754523 -0.039980467 -0.025306126 -0.03207664
0000d0 3c 00 41 3c f1 b7 4e bd a3 74 65 bd bf 12 03 3d
       0.011779841 -0.05046839 -0.056019437 0.0320003
0000e0 41 83 e1 bd e9 92 80 bc a4 7e 25 bd 6b 8e cd 3b
       -0.11011363 -0.015695052 -0.040403977 0.006273081
0000f0 e3 d2 93 ba d4 f8 2a bd fb 69 30 bd 8d 61 78 bd
       -0.0011278059 -0.041741207 -0.04306982 -0.060639907
000100 82 c0 9c bd da e8 1d 3c 5a 19 46 bc 2a b3 a4 b9
       -0.076539055 0.009638036 -0.012091005 -0.00031414005
000110 5d 9c 8c bd 40 32 ca bb 8c 44 96 bc 36 ae 95 bc
       -0.068657614 -0.006170541 -0.018343233 -0.018271547
000120 a8 4d 71 bc ba bc 70 3c 0d 1f 7f bd ae 7b 2b 3d
       -0.014727987 0.014693433 -0.06228547 0.041865997
000130 4b 17 df bc 73 7f 49 3c 45 80 12 3b 80 97 40 bd
       -0.027232787 0.012298453 0.0022354287 -0.04701948
000140 98 1e a6 3b 55 c0 a9 3c 3c a7 64 bd 36 b0 1b 3d
       0.005069565 0.020721594 -0.05582355 0.038009845
000150 1b 10 38 3c fd 47 e8 3c ff 13 07 3c 9f 34 25 3d
       0.011234309 0.02835464 0.0082445135 0.040333387
000160 4b ae 8e bd af 77 1b 3d b8 11 e1 3b 2c ab 3b bd
       -0.069668375 0.037955936 0.0068685673 -0.04581754
000170 4c dc ab bd 2f 52 24 3d ab bb 48 bd 07 d6 ea 3b
       -0.08391628 0.04011744 -0.0490071 0.0071666273
000180 4b a4 14 3d c0 ee bf 3c 87 7d 5d bd 56 c6 c8 bc
       0.036289494 0.023429275 -0.05407479 -0.024508636
000190 da 2c 0a 3c a3 b8 a4 bc 7c 60 b0 3b d2 fb 54 bc
       0.008433545 -0.020107573 0.0053825956 -0.012999492
0001a0 41 3c f0 3c dd 7a 7a bd 35 b6 4f bd 33 66 d4 ba
       0.029325606 -0.061152328 -0.050710876 -0.0016204774
0001b0 28 89 86 bd 94 cb 6b bc 42 2c 72 bd 59 0c eb 3c
       -0.06569129 -0.0143917985 -0.05912424 0.028692411
0001c0 81 36 85 bc 7e 2e 42 3c 00 4c 97 3c 08 3c 57 bd
       -0.016261341 0.011851905 0.018468857 -0.052547485
0001d0 85 8a 0d bc b0 64 c6 bc 61 4c 83 bc 16 7a bd bc
       -0.008638983 -0.024217933 -0.016027631 -0.023129504
0001e0 17 06 0e bd 3e c3 a7 bc 3f f1 60 bd 1b 5f 23 3d
       -0.034673776 -0.02047884 -0.05491757 0.03988562
0001f0 77 32 09 3c b4 b6 f4 3c 30 79 6e bd 27 41 fe bb
       0.008373848 0.029872276 -0.058221042 -0.0077592316
000200 e6 85 b9 39 45 cf 2a bd 16 6e 2d 3d cb 3d aa 3c
       0.00035385712 -0.041701574 0.042341314 0.020781418
000210 0b 9e 31 3c 78 a2 36 bd 63 0a 61 bb 77 0d 5d bc
       0.010840903 -0.044588536 -0.0034338466 -0.01349198
000220 ad 39 84 bd 62 91 0b bd 21 5d b9 ba 0d aa 42 bc
       -0.06456313 -0.034074195 -0.0014142134 -0.011881364
000230 88 a6 fc bc b0 d1 24 bc 28 07 4e 3c 32 9c ad 3c
       -0.030841127 -0.010059759 0.012574948 0.021192644
000240 d5 9a 92 bc a4 54 e2 3a b9 fd 97 bd 7b cc 02 3c
       -0.017896095 0.0017267657 -0.07421441 0.007983322
000250 99 d6 a5 bc ff 5a 6f bd e6 94 fe bc 0d b3 6d bd
       -0.02024393 -0.05843639 -0.03107686 -0.058032084
000260 5a 5d d6 3c ad 8e b1 3c 80 00 c5 bb 7d 58 f7 3c
       0.02616756 0.021674478 -0.0060120225 0.030193562
000270 99 0c 00 bd 5e 37 89 bc ef a6 3a bc 65 35 81 bd
       -0.031262014 -0.016750034 -0.011392339 -0.06309012
000280 8b 32 04 bb ce 09 98 bc 9d 0a 48 bd 1d 14 c5 bc
       -0.0020171728 -0.018559363 -0.048838247 -0.024057442
000290 29 ea 8b bc cc 43 4a bd a7 aa c1 bc 05 24 c2 bc
       -0.01707943 -0.049381062 -0.023640944 -0.023698816
0002a0 e8 94 8c 3b ab e0 19 bc dd b2 46 bd cb 11 19 3d
       0.004290212 -0.009391944 -0.04851042 0.037370484
0002b0 2e 7a c2 bb 64 61 41 bc 6d 23 4f 3a ae 2e be 3c
       -0.005934975 -0.011803005 0.0007901702 0.023215618
0002c0 d9 57 6a bc 72 71 b1 bc ed 8e 23 bd 6e b1 d4 3b
       -0.014303171 -0.02166054 -0.039931227 0.006490878
0002d0 24 b3 01 3d c8 c7 8d bd b2 33 f1 3c e0 65 b4 3c
       0.031664982 -0.06922871 0.029443596 0.022021234
0002e0 03 50 df 3c 23 8b 48 bd 35 d3 2a bc 86 a6 e6 3c
       0.027259832 -0.048960816 -0.010426332 0.028155576
0002f0 14 8a 86 bd cc 80 38 bc e4 55 0e bd 23 79 7c bc
       -0.06569305 -0.011261176 -0.03474988 -0.015409741
000300 02 c4 de bc c6 6e 44 3d 8e a3 ff 3c 91 29 91 3c
       -0.027193073 0.047957204 0.031205919 0.017720016
000310 b2 3b 9c 3c 32 1c 70 bc df 07 ef bc 91 b0 c9 bb
       0.019071434 -0.01465516 -0.029178558 -0.0061550816
000320 7b da 91 bd 06 c0 92 bc fd 5b d4 bc 28 78 43 bd
       -0.0712175 -0.01791383 -0.02592277 -0.04772201
000330 d3 49 95 bd b8 75 00 bd d3 bd 16 bd d0 f7 fe 3a
       -0.072894715 -0.031362265 -0.036802124 0.0019452516
000340 6a 8e a6 3c e0 88 47 bd aa 34 f1 bc b3 14 a5 bc
       0.02033158 -0.04871452 -0.029444057 -0.020151472
000350 1d 93 e1 bc 64 ea f5 3c da 0d d6 3c 6f 1d 01 bd
       -0.02753597 0.030018993 0.026129652 -0.03152221
000360 5d 08 aa bc 7a a9 a7 bd 32 27 ac 3c 57 7a 70 bd
       -0.020755941 -0.08186622 0.021014784 -0.058710422
000370 b0 b0 81 bc 6a 19 c6 bd ab 5c e2 3c fb 74 21 3d
       -0.015831321 -0.09672816 0.027632078 0.039418202
000380 fa 3e ef bc 10 47 00 3b da 94 48 3d f7 13 32 bb
       -0.029204834 0.0019573607 0.04897008 -0.0027172545
000390 d8 ce 6d 3c 07 cb d0 3c 48 01 65 bd 38 3f 46 bd
       0.014514647 0.025487436 -0.055909425 -0.048400134
0003a0 96 58 d8 bb 3c 4c 5d bd 13 80 f5 bb 46 eb 42 bc
       -0.006602357 -0.05402778 -0.0074920743 -0.011896914
0003b0 56 86 28 bd d5 af 31 bd f8 c8 ae ba 1e fe 00 bd
       -0.041143738 -0.043380577 -0.001333504 -0.031492345
0003c0 e3 af 26 bd 39 40 db bd 85 97 96 bd 56 ff 18 bc
       -0.040695082 -0.10705609 -0.07353119 -0.009338221
0003d0 78 30 93 3c ff a7 4a bd 75 40 ee bc 36 ac 3d 3d
       0.017967448 -0.04947662 -0.02908347 0.04630681
0003e0 86 c9 17 3c 41 a2 86 bd fa b1 20 bd c1 b8 a2 3c
       0.0092643555 -0.06573916 -0.03923223 0.019863488
0003f0 52 9c 64 bd a1 87 81 bd 1d 17 74 bc 3d 79 54 3d
       -0.05581314 -0.06324697 -0.014898089 0.051873434

fc2.bias f4 [300]
000000 da 6a 51 bd fd 9c d3 bd 23 2d 7b 3d 2e e2 20 bc
       -0.051127292 -0.103326775 0.061322343 -0.00981955
000010 18 f7 19 bc d6 8b 97 bd 89 d9 9c bd b8 4e f7 bc
       -0.009397291 -0.073997185 -0.07658679 -0.030188903
000020 46 ad 5f bd 3c 28 60 bd 91 3a bf bd a5 06 5c bd
       -0.054608606 -0.05472587 -0.093373425 -0.053717274
000030 c3 c2 dc bd 5d 6b 7f bb 29 6d ab 3e a5 c0 90 3a
       -0.10779335 -0.0038973906 0.3348172 0.0011043741
000040 fe 47 b5 bd 1e 49 a9 bd 9c c5 43 bc f5 60 4b be
       -0.08851622 -0.08265899 -0.011948969 -0.19861205
000050 de fe 94 bd 8f 48 90 3d 37 75 8c bd 52 16 86 bd
       -0.072751746 0.070450895 -0.068582945 -0.06547226
000060 df b6 af be c3 e5 e6 bc 54 07 99 bd 04 34 8f bc
       -0.34319207 -0.02818573 -0.07472101 -0.017480858
000070 a2 8e 99 bd 67 74 13 3d 7b a8 8f bd 20 c8 3e bd
       -0.07497908 0.03599968 -0.07014557 -0.046577573
000080 8a 89 eb bd a7 c5 96 bd bf 9a b0 3e 25 5a dd 3e
       -0.11500843 -0.07361918 0.34493062 0.43232837
000090 54 c1 f5 bd 57 a8 a0 bd 5a 15 27 bd 20 ef 95 bd
       -0.11999765 -0.07844608 -0.040791847 -0.07321
0000a0 d2 00 47 bd 53 ea c4 bd a9 dd 06 be 83 2b 4a be
       -0.048584767 -0.09615006 -0.13170494 -0.19743161
0000b0 fb 8e 3b bd 56 32 88 bd 23 62 51 bd 27 18 50 bc
       -0.045790654 -0.06650226 -0.05111898 -0.012701071
0000c0 9a b5 64 bd 84 cc 1a be a9 d3 99 be d1 3e 8e bd
       -0.05583725 -0.15117079 -0.30044296 -0.06945575
0000d0 13 ba 32 be 37 6d a1 bc 49 b7 32 bf 5f 0e 1a be
       -0.17453794 -0.019705398 -0.6981092 -0.15044545
0000e0 ce e2 0c bd 2f 07 dc bc fb c1 bf bc 39 e8 81 bd
       -0.034395985 -0.026858894 -0.023407927 -0.06343121
0000f0 93 a9 b5 bd 68 6b 77 be 15 79 d2 bd 07 49 95 bc
       -0.08870234 -0.24162066 -0.10277001 -0.018223299
000100 85 74 6d bd d6 4f 80 bd d7 33 e0 bd 8f 77 83 3e
       -0.05797245 -0.062652275 -0.10947388 0.25677153
000110 6b 18 9e bb b6 f1 1f 3f 67 b7 04 be 97 3e 5e bd
       -0.004824688 0.62478197 -0.12960587 -0.05425891
000120 37 26 64 bd 38 07 a8 bd df 6f 6a bd 5a 9a ae bd
       -0.055700507 -0.08204502 -0.057235595 -0.08525534
000130 68 8d 82 3c 73 35 10 bb 6e d7 83 3a 0d 5f ac bc
       0.015936568 -0.0022004514 0.001005871 -0.021041417
000140 28 5e ff bd 46 f1 8b bd a8 73 2d bd fe 15 cd 3c
       -0.12469131 -0.06833129 -0.042346627 0.0250349
000150 ee 4a 7d 3e ef bd 3b bb e1 90 20 3e ad e9 80 bd
       0.24735615 -0.0028647145 0.15680267 -0.0629457
000160 19 9f 3d bc 89 54 7f bc d2 80 fb 3d cd 36 e6 bc
       -0.011573576 -0.01558412 0.1228043 -0.028102303
000170 5a 66 a5 bd fe 3b cb bd 7c 76 8d bd 56 24 63 bd
       -0.08076163 -0.09923552 -0.06907365 -0.055454575
000180 7e 28 29 be 8d b0 b0 bd 20 6f ca bd 41 c9 16 be
       -0.16519353 -0.086274244 -0.09884477 -0.1472521
000190 16 bd 94 3e 4f 8e e2 bc b1 7a b4 bc b3 b7 d0 bd
       0.2905051 -0.027655749 -0.02203116 -0.10191288
0001a0 c5 f6 d4 bd d1 a4 a6 bc dd ec 44 bd e4 0e 87 bd
       -0.1039863 -0.020342262 -0.048077453 -0.06594637
0001b0 a3 88 55 3e 90 e5 d7 bb 27 44 a1 bd ea 88 b3 bd
       0.20852904 -0.0065886453 -0.07874327 -0.08766349
0001c0 8b 12 a4 bd 13 11 ef bd cf 98 b4 3b 05 76 ca bd
       -0.08011349 -0.116731785 0.0055113803 -0.09885792
0001d0 5c b4 3d 3a 53 18 9a bd 70 68 f5 bc 62 6d e7 bb
       0.00072366535 -0.07524171 -0.029957026 -0.0070626
0001e0 44 da cf bd f2 16 20 bd 7c 39 aa bb 66 fc a1 bd
       -0.10149053 -0.039084382 -0.005194841 -0.07909469
0001f0 d4 86 af bd f9 d9 08 be 03 9c 09 bd 63 f9 54 bd
       -0.08570638 -0.133644 -0.03359605 -0.051995646
000200 f3 a4 14 bd c5 b7 25 3d 74 27 8f bd c3 57 57 bd
       -0.03629012 0.04045846 -0.06989947 -0.05257393
000210 27 32 ec bc da 4f d8 bd f5 58 06 bc 3b 62 a0 3d
       -0.028832508 -0.105621055 -0.00819992 0.07831236
000220 06 b6 4c bd 5b f3 e4 bc 84 e8 a3 bd 75 fe c5 bd
       -0.04997828 -0.027948072 -0.08003333 -0.096676745
000230 7c e8 8c be 41 e4 8d bc 84 f3 12 bd f3 4f f6 bd
       -0.27521122 -0.017320754 -0.035876766 -0.12026968
000240 30 0f 9d 3d 8c dc c6 bd 03 51 83 bb ea 5f b3 bc
       0.076689124 -0.09710035 -0.00400746 -0.021896321
000250 9d d0 5f bd 1b cb 4c bd e7 f1 b7 bd b7 6d 51 bd
       -0.05464231 -0.049998384 -0.08981686 -0.051130023
000260 3d 40 62 3d a7 4b 15 bd ce c1 6a bd 7a 10 a1 bc
       0.055237044 -0.0364491 -0.057313733 -0.019661177
000270 3e 45 90 bc 28 e6 77 bd 8f 1c 12 bd 49 1a 83 bd
       -0.017611142 -0.06052223 -0.035671767 -0.06401498
000280 8e 57 92 bd 86 65 3c bd af ec 02 bd 62 55 65 bb
       -0.07145606 -0.045995258 -0.031964 -0.003499352
000290 d4 9f 76 3e 4b cb 08 38 2b 6e 87 bd 3e 7f 51 bd
       0.24084407 3.2614258e-05 -0.0661281 -0.05114674
0002a0 5d e9 72 be 13 21 e7 bd 6e d9 c1 3e 44 a0 00 be
       -0.23721834 -0.11285605 0.37861198 -0.12561136
0002b0 73 91 08 3d 63 1e 92 bd 24 95 8e bd 28 55 fd 3b
       0.033341836 -0.07134702 -0.0696204 0.0077310987
0002c0 9d 3d 2e bd d4 ef 00 3f 95 1c 8b be 63 ef d4 bc
       -0.042539228 0.5036595 -0.27170244 -0.025993055
0002d0 68 c8 63 be e8 88 72 bd 58 e7 94 bc eb f5 b8 3d
       -0.22244418 -0.059212595 -0.01817672 0.0903128
0002e0 94 b9 5d bd c3 3b c2 bb 01 d5 df be 52 74 4a bd
       -0.05413206 -0.0059275343 -0.43717197 -0.049427338
0002f0 bb fd 92 bd d5 31 9a be 82 b6 42 bd 2d 4d 53 bd
       -0.071773015 -0.30116144 -0.047537334 -0.051587272
000300 6d 9e b5 bd 28 c6 2e bd fb 70 89 bd 44 d6 9f bc
       -0.08868108 -0.042669445 -0.067110024 -0.01951135
000310 90 82 c5 bd 68 8f 0c bd d6 c2 bc bc 71 6e 2c bd
       -0.096440434 -0.03431645 -0.023042124 -0.042097513
000320 c7 52 fd bc 1c e8 24 bd d9 c2 70 be cd b8 e0 bc
       -0.03092326 -0.04026042 -0.23511828 -0.02743187
000330 41 15 e8 3a 2b 25 43 bd 02 fa f7 bc f2 fe e2 be
       0.001770653 -0.047642868 -0.03027058 -0.44335133
000340 42 d6 74 be e2 5f ee 3d e8 1e 89 bd 4a a8 38 bd
       -0.23909858 0.11639382 -0.06695348 -0.045082368
000350 aa 59 5e bd e6 6b 64 bd 15 9c bb bc 97 11 a0 bd
       -0.05428473 -0.055766962 -0.022901574 -0.07815855
000360 50 f9 8f bc 9e c8 10 be 95 30 12 bd 5c d3 50 bb
       -0.017574936 -0.1413903 -0.035690863 -0.0031864261
000370 a2 82 05 bf 05 78 4b bd d8 d5 77 be 51 57 d8 3d
       -0.52152455 -0.049675006 -0.24202669 0.10563529
000380 cf 76 cd 3c c8 6a be bd 91 2b b1 bd 97 2a 16 be
       0.025081066 -0.09297711 -0.08650888 -0.14664684
000390 df 4c e4 bc 90 54 62 3e f0 3f ec be 7a 88 b6 be
       -0.027868686 0.2210257 -0.4614253 -0.35650998
0003a0 ee 72 66 bd 2f 89 47 bc 0d d1 42 bd 84 61 b4 bd
       -0.05626195 -0.012178703 -0.047562648 -0.08807662
0003b0 6f 3f c9 bd f6 f0 5f 3e 0a 71 86 bd ba 70 bd bd
       -0.09826552 0.21869263 -0.06564529 -0.092500165
0003c0 e6 24 e1 bd 96 4b 41 bd e3 7c 98 bd 7c 39 9b bd
       -0.10993366 -0.047191225 -0.07445695 -0.07579324
0003d0 59 e7 b3 bd 87 6a a3 bc bc 6d 29 bd 26 c4 ec 3c
       -0.087843604 -0.019948257 -0.041364416 0.028902125
0003e0 45 fa 56 bd c3 c8 83 bc fb 15 de bc e7 81 5f bc
       -0.05248477 -0.016086942 -0.02711009 -0.013641811
0003f0 f9 61 d1 bc 60 52 3e bd 52 1d 9c be af 54 34 bd
       -0.025559412 -0.046465278 -0.3049112 -0.044026073

fc3.weight f4 [1, 300]
000000 c3 2a 29 bc f2 27 00 3e b8 dd b1 bc 0a 5e d8 3c
       -0.010325137 0.12515238 -0.021712169 0.026412029
000010 b7 59 14 3c 0d f8 7d 3c a9 49 0f ba bd e3 46 bc
       0.009054593 0.015501034 -0.00054659933 -0.012139258
000020 a2 53 b3 bc 06 eb 88 3c 50 6d b3 3c 16 95 76 3c
       -0.021890465 0.01671363 0.02190271 0.015050193
000030 c6 4b 68 3b d0 23 1e 3c db d6 b6 3d f6 26 e3 3a
       0.0035445555 0.009652093 0.08927699 0.0017330337
000040 c0 2e 22 3c 17 bc ca bc c5 9a 7e bc bb 1c 09 bd
       0.009898841 -0.024747891 -0.01553983 -0.033474665
000050 17 49 d3 3c c9 6b 42 bc 6c 14 a2 bc 3a 4c d2 3c
       0.025791688 -0.011866518 -0.019785129 0.025671113
000060 b3 dd a6 bc c7 f1 31 3c 81 31 2d 3c 9f 1b 44 bb
       -0.020369386 0.010860867 0.010570885 -0.002992369
000070 52 8f fb ba d4 b2 54 3d f0 66 8b bb 84 c1 a1 ba
       -0.0019192493 0.051928356 -0.0042542145 -0.0012340997
000080 cf 00 65 3b 82 bd 93 bc 62 ae 56 3c b5 0e 11 3d
       0.003494311 -0.0180347 0.0131031 0.035414416
000090 4b ea f2 3c 11 d8 a5 bb 69 51 eb bb 15 f8 5e bc
       0.029652735 -0.0050611575 -0.0071813357 -0.013608952
0000a0 1f 86 8f 3c 6e 10 9c bc fd 83 de 3c d1 2e ef 3c
       0.017520009 -0.019050803 0.027162546 0.029197128
0000b0 a6 61 17 3c 5c 28 89 3c c4 3e b1 bb 50 3e 98 bb
       0.00923959 0.016742878 -0.0054090936 -0.0046461
0000c0 08 d7 83 bc 4e 5e 12 3c 29 2f b6 bc 3d 68 d3 bc
       -0.016093746 0.008933617 -0.022239285 -0.02580654
0000d0 5c a9 8c bc a9 d4 b0 3c 31 d7 54 3c d5 be c9 3c
       -0.0171706 0.02158578 0.012990759 0.024627129
0000e0 10 8b 92 bc 71 cc 48 bb 9f 38 d2 bb e5 58 01 ba
       -0.017888576 -0.0030639435 -0.006415441 -0.0004934206
0000f0 d7 c1 ac 3c 96 12 54 bd cb 15 01 3d cc 38 cd 3b
       0.021088524 -0.051775537 0.031514924 0.006262874
000100 88 f3 cb bc 82 0c 74 bc 36 8c f7 3b ed 8a 82 3d
       -0.024896398 -0.01489556 0.0075545562 0.06374154
000110 cb 7b d9 bc 29 33 9e bc c2 50 a5 3c 23 90 08 3d
       -0.026548287 -0.019311504 0.02018011 0.033340584
000120 8c cc 30 b8 77 69 1d 3c de 06 dd 3c 87 e6 8e 3c
       -4.215217e-05 0.009607664 0.026980814 0.017443908
000130 a2 59 49 3c 20 2f 7a bd bd a4 25 bd 94 5f f3 bb
       0.0122894365 -0.0610801 -0.04044031 -0.0074271653
000140 39 05 67 bc 57 a2 66 bc 70 7f 12 3c 10 f7 a8 3c
       -0.014100366 -0.014076791 0.008941516 0.020625621
000150 cb 2b 3a 3c 69 62 43 3c 0f af bd 3c 3b f1 98 3c
       0.01136298 0.011925318 0.023154764 0.018669715
000160 d5 40 a0 3b 77 8c db bc f4 21 c3 3c 28 31 fb ba
       0.004890541 -0.026800377 0.023819901 -0.001916443
000170 c6 85 00 3c de ad 2a bb c5 ce 18 bc 01 8c 8d 3b
       0.007844394 -0.0026043574 -0.009326641 0.0043196683
000180 f6 c4 32 3d bb db 99 bb 11 59 a2 b8 50 60 cd 3c
       0.043644868 -0.0046953834 -7.741352e-05 0.02507034
000190 57 b1 3e 3d 54 13 04 3d 96 01 a8 bc d7 e0 09 3c
       0.046555843 0.032244995 -0.020508569 0.008415422
0001a0 d7 39 53 bc 1e 33 1e bc 7d af 64 3c e3 e6 63 3c
       -0.012892208 -0.009655742 0.013957855 0.013910028
0001b0 50 78 26 3c a6 3b 2d bc 74 c4 35 bd 25 0c 14 bd
       0.010160521 -0.010573303 -0.044376805 -0.036144394
0001c0 77 a2 ea 3b e4 5c 09 3b d1 63 b6 bb 4e 35 e4 bc
       0.0071604806 0.0020959908 -0.0055660983 -0.027857449
0001d0 c0 bd aa 3b 0b b9 19 3c cf 28 07 bb 56 a7 97 3c
       0.0052106082 0.009382497 -0.002062369 0.01851241
0001e0 d2 1a 8b bb 36 04 c2 3c d3 5c 40 bd 5b 9d 27 bc
       -0.0042451406 0.023683649 -0.046963524 -0.010230388
0001f0 74 89 82 bc e3 70 97 3c cd 10 9e 3c c7 1b 2a bc
       -0.015934683 0.018486446 0.01929512 -0.010382599
000200 27 ba 38 bc 2a b8 56 3d 71 a7 d9 3c 39 fd e0 3b
       -0.011274851 0.052421726 0.0265691 0.006866124
000210 6f 7d 4f 3c 87 2b 70 bc 57 b1 8f 3c 21 ba f5 3c
       0.012664183 -0.014658815 0.017540617 0.02999598
000220 3b 49 4c 3c 12 92 4c 3c 07 a2 12 bc 98 2b 56 bb
       0.012468631 0.012485998 -0.008949763 -0.0032679792
000230 1c 42 de 3c f5 e5 79 bc 7f dc db 3b b6 9f 42 3d
       0.027131133 -0.01525258 0.006709635 0.047515593
000240 14 82 58 3c 95 45 1d 3c ff 7a d6 3c a9 1f 73 3d
       0.013214607 0.009599109 0.026181696 0.059356365
000250 8c e0 03 3c f0 3f 83 3b 97 dd 22 3c 78 63 8a 3c
       0.008049142 0.0040054247 0.009940526 0.016893134
000260 e4 0d 2c 3c 3a 9d ec bd d8 4c eb 3a d0 05 cd bc
       0.010501359 -0.11553426 0.0017951978 -0.025027186
000270 50 06 2e bc 6b a6 e2 bb b3 ba 65 3c 43 6d 9f bc
       -0.010621622 -0.006916811 0.014021563 -0.01946128
000280 69 8e b6 38 a2 ea 3c bc 39 5d be bb 86 96 04 3a
       8.704962e-05 -0.01153055 -0.005809453 0.000505783
000290 db 83 47 3c 27 fe ba 3a 92 31 b5 bc db 0d d5 3c
       0.012177433 0.0014266417 -0.022118364 0.026007583
0002a0 9d 62 45 bc 37 f1 4c 3c 3c 81 05 bd a1 6b 3a 3c
       -0.012047437 0.012508682 -0.03259395 0.0113782
0002b0 8f 1f 82 3c ec f3 de bc 90 11 04 3d 6c 02 f7 bb
       0.015884189 -0.02721592 0.03224331 -0.0075381305
0002c0 26 4b c9 bc f6 d6 eb 3c c3 da dd 3c f3 1c ae bc
       -0.024571966 0.028789025 0.027081853 -0.021254038
0002d0 26 be 0a be f2 9d 2e bc 86 ef 8e 3c 27 4f 14 3d
       -0.13549098 -0.010657774 0.017448198 0.036208298
0002e0 0a 71 55 3c 80 54 96 bb b1 a2 b9 bc 26 65 3d bd
       0.013027439 -0.00458771 -0.022660585 -0.04623904
0002f0 cf 2a 86 bc 2f 06 93 bc 09 9c b7 bc a5 65 46 bc
       -0.016377835 -0.017947285 -0.02241327 -0.012109195
000300 5b e9 89 bb b5 18 d8 bc 96 50 d1 bc 24 75 88 bc
       -0.0042087263 -0.026378969 -0.025551122 -0.01665742
000310 b5 07 a0 3c ee c3 47 3c bb e4 a5 bc cd 20 40 3d
       0.019534925 0.012192709 -0.020250669 0.04690628
000320 8a 41 45 3c 6c 03 d7 b9 2c 1a 3c 3d 08 c8 30 3c
       0.0120395515 -0.00041010545 0.045923397 0.010789879
000330 39 a8 9f bc 95 76 de bc 0f e9 ab 3c 7b 62 45 3d
       -0.019489395 -0.027156154 0.020985154 0.04818962
000340 30 e4 8a bd 9b 58 19 3d a6 cc b5 bb 81 2f 98 3c
       -0.067818046 0.037438016 -0.0055480776 0.01857734
000350 60 c9 14 bc a1 9d 09 bb 7c 36 89 3b f5 f2 66 3a
       -0.009081215 -0.0020998495 0.0041874032 0.0008810007
000360 bb 13 95 bb 6b 68 85 bc 27 ad ab bb 7b ac 5a bc
       -0.004549471 -0.016285142 -0.005239147 -0.013346787
000370 e3 ca b0 bc d7 50 7c bc 29 ec 0b bd d3 c5 f8 3c
       -0.021581119 -0.015400133 -0.034160767 0.030367767
000380 5f cd 51 bc 61 c0 95 bb e9 84 e7 bc ca ad 36 3d
       -0.012805312 -0.0045700525 -0.028261619 0.044599332
000390 62 9c 8d bc a7 fd 6f bd c8 9d eb bc 60 37 18 bd
       -0.017286483 -0.05859151 -0.02876176 -0.037162185
0003a0 5e 3f 82 bb ed 6b 69 bc f7 ab 8f 3a 0c 84 af 3a
       -0.003974839 -0.014246923 0.0010961284 0.0013390793
0003b0 14 4c a1 bc de ae a2 3c cb 99 ae 3c d7 a6 83 bc
       -0.019689597 0.019858774 0.021313569 -0.016070766
0003c0 40 15 c1 3c 22 a2 91 bb a2 72 50 3c c1 e1 c5 bc
       0.023569703 -0.0044443766 0.012722643 -0.0241555
0003d0 14 89 cd bb 89 18 58 bc 41 f8 86 3c 3b b7 77 3d
       -0.0062724445 -0.013189443 0.016475799 0.060477477
0003e0 da c8 af 3c 16 6d a6 bb ee 3e f4 bb 0c 54 ef 38
       0.021458078 -0.005078922 -0.007453791 0.00011412063
0003f0 e3 29 a0 bb f0 ad 84 3c 33 b4 88 bd cb 9a 76 bc
       -0.004887806 0.016196221 -0.06674995 -0.015051554
