checkpoint_actor.pth (torch_old, 524603 bytes, 6 tensors)

fc1.weight f4 [400, 24]
-0.014911144 0.14489076 -0.033380777 -0.027018905 -0.12553248 -0.0110569745 0.031398896 -0.03470905
0.014938578 0.18464375 0.01531169 0.10610458 -0.087870345 -0.13963091 -0.030972226 0.11110245
-0.013738942 0.24232875 -0.024506923 0.12016172 -0.10755155 -0.29593894 -0.03442901 0.096651666
0.026246376 -0.075975515 -0.085895665 -0.01580535 0.10306842 -0.12374579 -0.06839066 -0.062515594
0.0077517554 -0.032245178 0.08409006 0.09724551 -0.052828524 0.06881975 0.010974165 0.07764235
0.021802453 -0.09188995 -0.016604565 -0.10621986 -0.08954283 0.21725379 0.059708297 -0.10439184
0.018584525 -0.112084754 -0.0038363726 -0.038793504 -0.15165956 -0.11019759 -0.03425463 0.002645244
0.07371661 -0.08070743 -0.03268537 -0.0603885 -0.097404115 0.0072015384 -0.06580974 -0.0358916
0.032616917 -0.05120923 0.022828758 0.06480136 -0.09938099 0.22412576 -0.024987634 -0.011740966
-0.07663984 -0.0011047046 0.010590985 0.09041494 0.102794394 -0.074634954 -0.0031464652 0.06404023
0.00975278 0.020018395 -0.0036695362 0.068365015 -0.05837818 0.03741449 -0.05636734 0.051516313
-0.05695413 0.09297931 0.0059608417 0.030339377 -0.081192255 0.12378231 -0.042189576 0.1105598
0.0049270038 0.14371845 -0.020705905 -0.09081725 0.0056484686 0.12801357 -0.018747846 -0.12362486
0.03384187 0.14471318 -0.080202155 -0.017295219 0.2051741 0.073281094 -0.043929633 0.01062777
0.02094369 0.17882086 -0.025097283 -0.051208545 0.34387255 0.16313648 0.016751789 -0.084703594
-0.12425738 -0.06431461 -0.01916392 0.026293116 0.09640436 -0.080827214 0.013600816 0.0012800256
-0.10577505 -0.043838326 -0.020918632 0.023141515 0.033441037 -0.062927514 0.037321802 0.011653825
-0.06626515 0.009886387 -0.040763557 0.021283347 -0.015690729 -0.051682048 -0.060431294 -0.0115720285
0.09879679 0.11217397 -0.026694974 -0.12631612 -0.015049017 -0.055299215 0.015541911 -0.18565908
0.012496897 0.07520839 -0.010013401 -0.14281061 0.087776504 0.05773536 -0.017378436 -0.1485501
0.032909818 0.05074337 0.027855057 -0.17501141 0.07297643 0.020946678 0.036860347 -0.22712131
-0.0027235784 0.40129104 -0.00789261 -0.1370528 0.018224409 -0.070183076 -0.018644115 -0.07670076
0.010465216 0.37749743 -0.01197595 -0.26210728 -0.0034308564 -0.13073239 -0.021830386 -0.21527989
-0.067767516 0.23990598 -0.00433454 -0.2442082 0.07657462 -0.12174974 -0.055141248 -0.2770861
0.05438461 0.20746168 -0.032287374 -0.100460485 -0.03222585 0.1416621 0.02731462 -0.076563165
0.010939085 0.14822677 -0.005824986 -0.0001349855 -0.018588878 0.2745792 0.0010636812 -0.018079082
-0.077640556 0.14302179 -0.018967291 0.024648096 0.00060838804 0.118443 0.012368059 -0.0066820304
0.047696777 0.033158224 -0.0079404 0.06835174 0.00802515 0.004345793 -0.039111126 0.090505585
0.1284503 0.07594786 -0.0420352 0.08894872 0.070591114 -0.15377116 0.026411599 0.13128844
0.04762172 -0.021729367 0.05867659 -0.18737225 0.19611104 -0.19212116 0.016633337 -0.14030343
0.13853772 0.3831212 -0.0048902435 -0.014704968 0.17182623 0.09553348 -0.025457853 -0.008461034
0.12627678 0.34187016 -0.011226656 -0.064981475 0.040867176 -0.0040950645 -0.02310196 -0.088283285
00000000: df4d 74bc 3e5e 143e 48ba 08bd c056 ddbc
00000010: 968b 00be 5028 35bc 219c 003d 142b 0ebd
00000020: f0c0 743c 4013 3d3e e2dd 7a3c 5c4d d93d
00000030: 5ef5 b3bd 68fb 0ebe 77b9 fdbc ae89 e33d
00000040: 4d19 61bc 0725 783e bec2 c8bc 5917 f63d
00000050: fd43 dcbd 4f85 97be 6f05 0dbd 4ff1 c53d
00000060: a402 d73c 0d99 9bbd 11ea afbd 397a 81bc
00000070: 8915 d33d 6f6e fdbd 6710 8cbd 2d08 80bd
00000080: 7002 fe3b 8513 04bd 6937 ac3d a728 c73d
00000090: b962 58bd 5ef1 8c3d fccc 333c f402 9f3d
000000a0: 0f9b b23c cc30 bcbd 4c06 88bc cc89 d9bd
000000b0: 3b62 b7bd c777 5e3e b090 743d 64cb d5bd
000000c0: 933e 983c b18c e5bd a76b 7bbb f0e5 1ebd
000000d0: a54c 1bbe 46af e1bd 954e 0cbd d45b 2d3b
000000e0: bcf8 963d f049 a5bd 18e1 05bd ef59 77bd
000000f0: cf7b c7bd e2fa eb3b 42c7 86bd 1203 13bd
00000100: 5199 053d c5c0 51bd 6003 bb3c 93b6 843d
00000110: 4388 cbbd 3981 653e deb2 ccbc 2e5d 40bc
00000120: 59f5 9cbd bccb 90ba d085 2d3c 782b b93d
00000130: de85 d23d 36da 98bd ed34 4ebb 8627 833d
00000140: 20ca 1f3c 9efd a33c 9a7c 70bb f502 8c3d
00000150: f51d 6fbd f03f 193d 71e1 66bd c502 533d
00000160: bc48 69bd f06b be3d 2a53 c33b 498a f83c
00000170: 2048 a6bd 9481 fd3d face 2cbd 2d6d e23d
00000180: b472 a13b ee2a 133e 6e9f a9bc 65fe b9bd
00000190: ca16 b93b fd15 033e 1595 99bc 082f fdbd
000001a0: c69d 0a3d b12f 143e 0741 a4bd b4ae 8dbc
000001b0: 2919 523e 6614 963d 8fef 33bd 1920 2e3c
000001c0: 1a92 ab3c d11c 373e d198 cdbc 0dc0 51bd
000001d0: 1010 b03e 400d 273e 0c3b 893c 1479 adbd
000001e0: a77a febd 61b7 83bd a7fd 9cbc a964 d73c
000001f0: a66f c53d bd88 a5bd f5d5 5e3c 88c6 a73a
00000200: 97a0 d8bd d18f 33bd 8d5d abbc 4693 bd3c
00000210: 78f9 083d 24e0 80bd bfde 183d afef 3e3c
00000220: 06b6 87bd 83fa 213c b0f7 26bd 6a5a ae3c
00000230: d889 80bc 8eb0 53bd ce86 77bd 9b98 3dbc
00000240: f955 ca3d 77bb e53d 6baf dabc 0359 01be
00000250: 2790 76bc 6e81 62bd 80a3 7e3c 6a1d 3ebe
00000260: c9bf 4c3c db06 9a3d 3f0f 24bc f23c 12be
00000270: 2bc4 b33d ea7b 6c3d 395d 8ebc 841d 18be
00000280: 72cc 063d 48d8 4f3d 4a30 e43c 3136 33be
00000290: ab74 953d 5e98 ab3c e0fa 163d 7d92 68be
000002a0: 107e 32bb 0576 cd3e 0150 01bc 9257 0cbe
000002b0: 5b4b 953c 25bc 8fbd 8bbb 98bc 4a15 9dbd
000002c0: 4c76 2b3c 5847 c13e c636 44bc ed32 86be
000002d0: 38d8 60bb b6de 05be a3d5 b2bc 5572 5cbe
000002e0: b2c9 8abd eaa9 753e c208 8ebb b711 7abe
000002f0: 28d3 9c3d ed57 f9bd cadb 61bd 3bde 8dbe
00000300: 66c2 5e3d d670 543e c43f 04bd 3abe cdbd
00000310: 41ff 03bd df0f 113e e9c2 df3c 26cd 9cbd
00000320: d939 333c c2c8 173e 86df bebb e58a 0db9
00000330: b447 98bc a595 8c3e 386b 8b3a 951a 94bc
00000340: 0302 9fbd 4e74 123e 4b61 9bbc ceea c93c
00000350: 3b7c 1f3a 3e92 f23d 66a3 4a3c eff4 dabb
00000360: b25d 433d ebd0 073d 7418 02bc fffb 8b3d
00000370: eb7b 033c 2767 8e3b fd32 20bd fe5a b93d
00000380: 7a88 033e 8d8a 9b3d 1a2d 2cbd bf2a b63d
00000390: 1392 903d 3076 1dbe 235d d83c 7a70 063e
000003a0: fe0e 433d c901 b2bc dd56 703d 83de 3fbe
000003b0: 55d1 483e 69bb 44be a342 883c b4ab 0fbe
000003c0: d5dc 0d3e 7628 c43e 563e a0bb 1bed 70bc
000003d0: 37f3 2f3e 0fa7 c33d fd8c d0bc 26a0 0abc
000003e0: b34e 013e 9b09 af3e 02f0 37bc 0215 85bd
000003f0: 5764 273d e42f 86bb 5240 bdbc decd b4bd

fc1.bias f4 [400]
0.06568575 -0.07155803 0.07539681 -0.0025403565 -0.21092552 -0.044156995 0.023233278 0.044228483
-0.019137818 -0.25145483 0.3051335 0.15252757 -0.12534598 0.120842725 0.015709782 -0.1133449
0.14445703 -0.045173045 0.13185908 0.093405284 -0.039269347 0.15752013 0.0036177698 -0.13949089
0.05044709 -0.14534692 -0.1578154 -0.023972979 -0.24120319 0.048130434 -0.16066232 0.1277422
0.039917413 0.23217697 -0.18728945 -0.1618033 0.1802729 -0.18071112 -0.0033062787 -0.22865544
0.06134776 -0.16676006 0.2633766 0.101705216 -0.06998441 -0.15249538 0.13471025 0.09271074
0.17856862 0.32400972 0.15410799 0.18158217 0.058869466 -0.059070274 0.041215114 0.10039098
0.024477059 -0.18954636 0.1207148 -0.028975366 0.09493082 -0.19930659 -0.06782136 0.02150535
0.14803779 0.02985711 0.060273837 0.09934118 -0.17305136 0.17282203 0.0044761314 0.13629356
0.06428145 0.11786697 -0.09230683 -0.064301275 -0.20622554 0.084459 0.034720667 0.14553054
0.2293618 -0.08436163 0.13410562 0.177061 -0.17129861 0.20080304 0.0014895757 -0.22155909
-0.16998266 0.06969428 -0.116724975 0.13737486 0.12499364 0.04785542 0.018302757 -0.13032278
0.07799134 0.17844807 0.028702162 -0.19023971 0.22571804 -0.06807507 0.025601782 -0.18725285
0.19824097 0.03991653 0.056229014 0.18570985 -0.16100515 0.1526592 0.08832528 -0.18695144
-0.14568041 0.07674111 -0.09509329 -0.24846746 -0.0054182694 0.012428721 -0.22031735 -0.19527782
0.0062807794 -0.13628471 -0.20172545 -0.23429514 -0.12924074 -0.23461674 0.12991188 0.09535582
-0.07412686 -0.19821864 0.111476064 0.039774667 -0.1714135 0.026011301 0.080988064 0.07400009
0.13416125 -0.12327842 0.015867252 -0.15798955 0.09775107 -0.16391829 -0.12549569 -0.119260766
-0.12255531 0.21583565 -0.18610498 -0.011445047 0.03323282 -0.032124694 0.118506044 -0.12373739
-0.07368376 -0.17826545 -0.10283505 -0.027202977 0.1792301 0.13889045 0.11441656 -0.1579399
-0.09622134 0.056775216 -0.17261207 -0.0028185963 0.017685834 0.09534593 0.0032367404 -0.1764371
0.08558536 0.15710019 -0.18241887 0.07705216 0.16132791 -0.029707696 -0.25381652 0.05028067
-0.047128152 -0.038514096 -0.17872773 -0.1664499 0.003826907 -0.035430692 -0.2161342 -0.1197724
0.058256004 0.18117812 -0.18123229 -0.06950629 -0.18835361 -0.18504377 0.10965382 -0.0949772
0.2512805 0.05152658 -0.0761445 0.1132223 -0.13123661 -0.19351554 -0.13933058 0.01983413
-0.016968451 0.030316314 0.20135194 0.083632655 0.09941171 -0.1826734 0.16750094 -0.04935599
0.26767755 0.15002973 0.11757269 -0.13867794 0.15373152 0.13483854 -0.16862848 0.054453496
-0.031654377 -0.060133006 -0.1842606 0.12453515 -0.15012462 0.18519805 -0.10247124 -0.04743345
0.10277318 -0.038901526 -0.11390483 0.14259408 0.102884285 -0.1325128 -0.16804129 -0.14946066
-0.122598514 0.16482879 0.17914112 0.12395138 0.09617324 -0.19752257 0.072549224 0.12190471
0.111216135 0.030495571 0.07600044 0.05012782 0.1866202 0.122297004 0.15163697 0.17083946
-0.13388222 -0.30058005 -0.16697235 -0.14720929 -0.272617 0.15825829 0.14332408 -0.03611254
00000000: 4086 863d 048d 92bd a569 9a3d 1c7c 26bb
00000010: dcfc 57be f7dd 34bd b753 be3c ed28 353d
00000020: eac6 9cbc b0be 80be 753a 9c3e 3030 1c3e
00000030: b25a 00be 647c f73d cdb1 803c 5f21 e8bd
00000040: 8bec 133e 5f07 39bd 1106 073e 454b bf3d
00000050: e5d8 20bd f54c 213e 1b18 6d3b b3d6 0ebe
00000060: 9ca1 4e3d d3d5 14be 5c9a 21be fb62 c4bc
00000070: f8fd 76be 6b24 453d aa84 24be dace 023e
00000080: 7180 233d cdbf 6d3e cec8 3fbe c4af 25be
00000090: 7699 383e 560c 39be 27ae 58bb a724 6abe
000000a0: ca47 7b3d 26c3 2abe 4cd9 863e d34a d03d
000000b0: fd53 8fbd c027 1cbe 7cf1 093e 21df bd3d
000000c0: b1da 363e 9ae4 a53e 7cce 1d3e adf0 393e
000000d0: 1c21 713d acf3 71bd 2ed1 283d c999 cd3d
000000e0: 1d84 c83c 7118 42be 5239 f73d bf5d edbc
000000f0: 176b c23d 0717 4cbe ede5 8abd fd2b b03c
00000100: 3897 173e e696 f43c b3e1 763d 6373 cb3d
00000110: 6034 31be 42f8 303e 83ac 923b 8a90 0b3e
00000120: fea5 833d 3d64 f13d 5d0b bdbd 63b0 83bd
00000130: ca2c 53be d7f8 ac3d 4237 0e3d f505 153e
00000140: d2dd 6a3e cac5 acbd fc52 093e 7b4f 353e
00000150: e768 2fbe 509f 4d3e de3d c33a 63e0 62be
00000160: ef0f 2ebe e0bb 8e3d 810d efbd ffab 0c3e
00000170: aafc ff3d 0b04 443d aaef 953c 5673 05be
00000180: ecb9 9f3d 17bb 363e cc20 eb3c 33ce 42be
00000190: a122 673e f16a 8bbd d4ba d13c 36bf 3fbe
000001a0: aeff 4a3e 847f 233d 6550 663d b92a 3e3e
000001b0: 89de 24be b152 1c3e e2e3 b43d 3370 3fbe
000001c0: 3f2d 15be 712a 9d3d 45c0 c2bd 416e 7ebe
000001d0: bd8b b1bb d6a1 4b3c df9a 61be e9f6 47be
000001e0: ffce cd3b 388e 0bbe 1e91 4ebe 11eb 6fbe
000001f0: af57 04be 5f3f 70be 9f07 053e ea49 c33d
00000200: d3cf 97bd d4f9 4abe 904d e43d c3ea 223d
00000210: 0587 2fbe a715 d53c 12dd a53d 5c8d 973d
00000220: 9161 093e 6579 fcbd 0afc 813c 03c8 21be
00000230: b731 c83d 32da 27be f181 00be fd3e f4bd
00000240: 47fe fabd 0504 5d3e 4e92 3ebe 0284 3bbc
00000250: 231f 083d 2f95 03bd 4cb3 f23d 076a fdbd
00000260: 83e7 96bd 388b 36be 2f9b d2bd c7d8 debc
00000270: 1888 373e 4c39 0e3e 3b53 ea3d ffba 21be
00000280: b20f c5bd 218d 683d 38c1 30be 33b8 38bb
00000290: e2e1 903c ba44 c33d 7e1f 543b edab 34be
000002a0: 6147 af3d dfde 203e 03cc 3abe 86cd 9d3d
000002b0: 2533 253e 8e5d f3bc 3df4 81be 1bf3 4d3d
000002c0: 7309 41bd f5c0 1dbd 6704 37be d871 2abe
000002d0: d8cc 7a3b c61f 11bd 4952 5dbe 3b4b f5bd
000002e0: d99d 6e3d c286 393e f594 39be 5059 8ebd
000002f0: c5df 40be 1d7c 3dbe 2f92 e03d 6883 c2bd
00000300: d6a7 803e 890d 533d a6f1 9bbd 18e1 e73d
00000310: e462 06be f028 46be adac 0ebe 2f7b a23c
00000320: 6c01 8bbc eb59 f83c 342f 4e3e 9947 ab3d
00000330: 5e98 cb3d bc0e 3bbe 5e85 2b3e 8229 4abd
00000340: 080d 893e 65a1 193e f3c9 f03d 9701 0ebe
00000350: cc6b 1d3e 1d13 0a3e f2ac 2cbe a10a 5f3d
00000360: 05a8 01bd 074e 76bd d0ae 3cbe 490c ff3d
00000370: 45ba 19be 8fa4 3d3e 71dc d1bd 9449 42bd
00000380: bf7a d23d 3557 1fbd ef46 e9bd 2f04 123e
00000390: ffb4 d23d 6fb1 07be 0413 2cbe 370c 19be
000003a0: ee14 fbbd e1c8 283e c570 373e 39da fd3d
000003b0: 7af6 c43d 5b43 4abe b094 943d 2da9 f93d
000003c0: 49c5 e33d d9d1 f93c 1ea6 9b3d d452 4d3d
000003d0: 5e19 3f3e da76 fa3d b946 1b3e 8af0 2e3e
000003e0: 6c18 09be a1e5 99be cdfa 2abe 08be 16be
000003f0: 7594 8bbe 760e 223e 8cc3 123e beea 13bd

fc2.weight f4 [300, 400]
-0.09410178 -0.03179668 -0.0047114803 0.101368405 -0.23974541 0.05706441 -0.369902 -0.05775465
-0.022703735 -0.1282428 -0.16297682 -0.012632541 -0.23862635 0.08003846 -0.07284276 0.27793843
-0.06987824 -0.11634991 0.059405476 0.07302906 -0.35092738 0.06540888 -0.03161849 -0.011530809
-0.06597539 0.056143217 -0.027349198 -0.011073027 0.009876984 -0.008033417 0.021204077 -0.059636496
-0.021353174 -0.0029816085 0.07305785 -0.14156032 -0.021811651 0.021681493 -0.028277671 0.039522722
0.03977217 -0.046562463 0.04570446 -0.11668567 -0.08872085 0.025247158 -0.05304089 0.0811055
0.01258408 0.098272346 -0.0845546 -0.042639237 0.025545267 -0.11253798 0.07184699 0.01548092
0.094478756 -0.059253994 0.03879135 0.045009807 -0.2942944 0.05977897 -0.018836722 0.07571507
0.14109801 -0.032872736 -0.008347824 0.0016970997 -0.052649293 0.010554822 0.02570562 0.055945028
-0.16506274 0.13906491 0.081363134 0.0026008298 0.037956666 0.019489907 0.04610887 0.007913118
-0.34942624 -0.06502833 0.05679785 -0.05209101 0.044046264 -0.14072424 0.016057111 0.027964028
0.024269117 0.03811711 0.024455518 0.00040130317 0.11806723 0.17800863 0.08872795 -0.101585336
-0.04599006 0.003746436 -0.090957865 -0.012479865 -0.17805244 0.102265075 -0.03338118 0.018335637
-0.053851034 -0.07350433 0.03697069 0.022570802 -0.12639225 -0.05605193 0.029342249 0.072614394
0.04815725 0.01564782 0.022845348 -0.04430794 0.04147463 0.044199858 -0.030285224 0.027013138
0.099426195 -0.029803429 0.1074708 -0.007643071 0.0037241855 0.037524275 -0.034955226 0.048351537
0.042023763 -0.005732711 0.055059925 -0.022891946 0.055692084 0.15357098 -0.022852402 -0.12249489
-0.02720457 0.013527571 0.011270821 0.009088909 -0.042338975 0.025559882 -0.017118497 0.08222395
0.058714762 -0.1185904 -0.0063573783 -0.09463269 0.04646339 -0.0064158873 0.025012732 0.07629269
-0.3431639 -0.049050204 -0.018102255 0.045128673 -0.06617012 -0.0059681768 0.025957346 0.04251424
-0.054023854 0.033092856 0.037280284 0.02609417 0.0996543 -0.12707518 0.041189652 -0.17547968
0.06856663 0.022870991 0.056236316 -0.18985409 -0.0049651493 -0.017817311 0.06583179 0.026579387
0.009737789 -0.24218537 0.022056201 0.14265917 -0.17162168 -0.013404386 -0.015845254 0.042164672
0.03502359 0.036505174 0.06889286 0.00333624 -0.0008258264 0.07777296 0.016303964 0.096953325
-0.026433501 -0.007775597 -0.25617808 0.021378715 0.09231325 0.05167153 -0.024279745 -0.032366216
0.015740115 0.017265635 -0.12941927 0.13808228 -0.26953867 0.033018913 -0.044516817 0.098487206
-0.01927726 -0.031981703 0.01462371 0.08246445 0.032714427 -0.20634522 0.03661822 -0.035866648
-0.0028590064 0.02722176 0.06036657 0.07199495 -0.011621236 -0.021098832 0.032682087 -0.024767052
0.02266437 -0.27505264 0.01843422 -0.038946506 0.07763261 0.013563669 0.016227331 0.042447064
-0.10232494 0.09725911 0.006075517 -0.07540849 -0.03029991 -0.012038901 0.06624589 0.028387785
0.0037367353 -0.054650303 0.07792643 0.06956218 -0.110088654 -0.05909733 0.030531147 -0.047504764
-0.032633685 -0.14680263 0.016452486 -0.0053327833 0.043489378 0.09958033 -0.13274223 -0.041351743
00000000: 6fb8 c0bd 3c3d 02bd c362 9abb 3d9a cf3d
00000010: d27f 75be 5fbc 693d cc63 bdbe 2490 6cbd
00000020: 2ffd b9bc 1552 03be 65e3 26be b8f8 4ebc
00000030: 775a 74be 34eb a33d 962e 95bd f24d 8e3e
00000040: 531c 8fbd dd48 eebd 2853 733d 4390 953d
00000050: c1ac b3be 17f5 853d 6482 01bd b8eb 3cbc
00000060: 1b1e 87bd 6ef6 653d 6d0b e0bc a46b 35bc
00000070: 13d3 213c 989e 03bc 2cb4 ad3c 6645 74bd
00000080: daec aebc 1767 43bb 5b9f 953d 30f5 10be
00000090: 59ae b2bc 639d b13c 93a6 e7bc 94e2 213d
000000a0: 25e8 223d 48b8 3ebd 9a34 3b3d e6f8 eebd
000000b0: 47b3 b5bd 21d3 ce3c 6741 59bd a41a a63d
000000c0: 752d 4e3c 0343 c93d f62a adbd 7ba6 2ebd
000000d0: 4f44 d13c 507a e6bd 8424 933d afa3 7d3c
000000e0: 147e c13d 51b4 72bd aee3 1e3d 345c 383d
000000f0: c1ad 96be cbda 743d 784f 9abc 8110 9b3d
00000100: ff7b 103e 90a5 06bd 50c5 08bc 3771 de3a
00000110: c9a6 57bd 22ee 2c3c 9894 d23c 9d26 653d
00000120: 3506 29be 0867 0e3e b7a1 a63d af72 2a3b
00000130: 7378 1b3d 4ca9 9f3c a8dc 3c3d 06a6 013c
00000140: ffe7 b2be 932d 85bd dda4 683d 625d 55bd
00000150: db69 343d 041a 10be 348a 833c d114 e53c
00000160: 07d0 c63c b020 1c3d f056 c83c 0066 d239
00000170: 3bcd f13d e547 363e 00b7 b53d f90b d0bd
00000180: 1360 3cbd c486 753b 1e48 babd 5978 4cbc
00000190: 6153 36be 5a70 d13d b4ba 08bd 9e34 963c
000001a0: e792 5cbd 7089 96bd 946e 173d 67e6 b83c
000001b0: f86c 01be b596 65bd 285f f03c dbb6 943d
000001c0: 8940 453d db2f 803c 2b26 bb3c 3e7c 35bd
000001d0: 4de1 293d e90a 353d b818 f8bc a84a dd3c
000001e0: f69f cb3d 5226 f4bc a719 dc3d ba72 fabb
000001f0: 7711 743b 0eb3 193d 362d 0fbd 430c 463d
00000200: 1c21 2c3d 77d9 bbbb 8486 613d e487 bbbc
00000210: 621d 643d b641 1d3e f634 bbbc 9ade fabd
00000220: 1edc debc bfa2 5d3c 40a9 383c a6e9 143c
00000230: a26b 2dbd f562 d13c 173c 8cbc 0865 a83d
00000240: e47e 703d 86df f2bd 8e51 d0bb c9ce c1bd
00000250: 6550 3e3d 5d3c d2bb 80e7 cc3c 583f 9c3d
00000260: 2eb3 afbe dee8 48bd 2e4b 94bc d8d8 383d
00000270: 3384 87bd b290 c3bb 80a4 d43c 6923 2e3d
00000280: 1e48 5dbd 608c 073d 36b3 183d 71c3 d53c
00000290: 8e17 cc3d ff1f 02be 7bb6 283d f2b0 33be
000002a0: a96c 8c3d f25b bb3c 0d58 663d 1c69 42be
000002b0: b1b2 a2bb 9cf5 91bc d1d2 863d 04bd d93c
000002c0: 3f8b 1f3c 71ff 77be 35af b43c 3f15 123e
000002d0: 98bd 2fbe 129e 5bbc e8cd 81bc ddb4 2c3d
000002e0: e574 0f3d 7386 153d b317 8d3d d2a4 5a3b
000002f0: 467c 58ba 6e47 9f3d e48f 853c 778f c63d
00000300: 128b d8bc 6fca febb c629 83be 6a22 af3c
00000310: bb0e bd3d 87a5 533d 51e6 c6bc 7092 04bd
00000320: 6af1 803c a970 8d3c 7c86 04be 7165 0d3e
00000330: f900 8abe d73e 073d 4457 36bd a9b3 c93d
00000340: 58eb 9dbc 3fff 02bd 4998 6f3c 1fe3 a83d
00000350: 90ff 053d 294c 53be fdfc 153d e8e8 12bd
00000360: 2b5e 3bbb 2b00 df3c f042 773d 1772 933d
00000370: ff66 3ebc 75d7 acbc a7dd 053d 46e4 cabc
00000380: a1aa b93c b3d3 8cbe 5d03 973c 5f86 1fbd
00000390: d9fd 9e3d 273a 5e3c 2eef 843c f9dc 2d3d
000003a0: bd8f d1bd c92f c73d 2115 c73b c46f 9abd
000003b0: 8437 f8bc d03e 45bc edab 873d 808d e83c
000003c0: 04e4 743b ffd8 5fbd e497 9f3d 9e76 8e3d
000003d0: 2976 e1bd 0b10 72bd 751c fa3c 5b94 42bd
000003e0: e6aa 05bd 6e53 16be 5dc7 863c a1be aebb
000003f0: eb21 323d c6f0 cb3d 94ed 07be 7260 29bd

fc2.bias f4 [300]
-0.031043384 0.037063 0.086804636 0.007807732 0.010529189 0.0009145283 0.071737505 0.006218884
-0.06769437 0.0017601869 0.0066065188 0.04505353 0.012144368 -0.028691754 0.023423433 0.017577164
0.09284572 -0.16918056 0.021749113 0.036083903 0.09061354 0.053381428 -0.04639804 0.083098546
0.022155765 0.059345864 0.031465635 -0.019020414 -0.02977351 -0.004564622 0.04991672 0.020294176
0.044309527 -0.034754008 -0.07596824 0.010239059 -0.023196468 -0.07755429 0.031764265 -0.027688652
-0.020649236 -0.0268551 0.023742214 0.023516927 -0.02143196 0.039127477 -0.031893082 0.021634046
-0.0041643837 -0.069384284 -0.02546415 -0.076687075 0.025873471 -0.016531046 0.0035501039 -0.037465658
0.045150224 0.034649186 -0.010656839 0.007244739 0.030399427 -0.06323346 -0.058942605 -0.017029276
0.020419955 -0.05021744 0.012457337 -0.05393597 -0.038860932 -0.092119135 -0.0010290203 0.044729922
-0.053795017 -0.14410979 -0.033743482 -0.039874386 -0.073987834 -0.029591193 -0.029750759 0.04456426
0.09862215 0.046577036 -0.049896367 -0.045066614 0.07163985 0.00017197292 0.05687318 -0.016526151
-0.045493472 0.12598515 -0.07485593 0.013875653 -0.061914418 -0.043315854 -0.037612416 0.0087709315
-0.10771036 0.003955242 0.07160323 -0.04924632 -0.14993945 -0.020099878 -0.0006427085 0.006487999
0.07553437 -0.022429645 -0.079547495 0.07064473 -0.0056998967 0.02759001 0.013078377 0.059609737
-0.065967046 0.026031975 -0.008634827 0.029217357 0.031055432 0.0027055708 -0.04086226 0.006056738
0.0063317507 0.0568148 -0.021270102 0.037038114 0.0959962 0.005026223 0.055846944 -0.04428078
-0.067239 -0.041747157 -0.005658947 -0.047869086 -0.03536832 0.056202766 -0.12623356 -0.004178411
-0.026341954 0.05628667 -0.016929375 0.019860191 0.016678719 -0.009544932 0.036457155 -0.0057416507
-0.025160799 0.033628736 -0.025555292 -0.022047289 0.03829169 0.047253642 -0.05318387 0.049944486
0.019982085 0.022907803 -0.037995014 -0.07472556 -0.029583376 -0.0731144 0.039825715 0.06579951
0.060686804 -0.04474134 -0.017800348 0.007534398 -0.053417742 0.028817188 0.059689317 -0.07533738
-0.020497788 -0.040433083 0.0050286003 0.0043498976 -0.02578774 -0.027462285 0.025247058 -0.030750472
0.008540163 0.020773808 0.07547128 0.0265123 -0.05710701 0.022554807 -0.027690478 0.028697304
-0.13291286 -0.06134136 -0.0066018132 0.104068734 -0.1255798 -0.090862155 0.001101651 -0.04146127
0.040541086 0.04170468 0.049180143 0.025026347 0.058865722 0.081892066 -0.042594783 -0.018671762
0.029396614 -0.025485383 0.0077516777 -0.038523987 -0.059934985 -0.010486042 0.00079103996 0.032834053
-0.026610652 -0.0059298887 0.01205962 0.0075597116 -0.045445118 0.006334449 -0.017233629 -0.048506495
0.024755534 0.08758373 0.056654356 -0.10123228 0.07577788 0.011960879 0.018100765 -0.04932954
-0.03172999 -0.047934655 -0.033620454 -0.07521194 -0.061117984 0.01889424 -0.024558205 -0.05265616
0.0369951 0.06596402 -0.047212742 0.10193376 0.09454707 -0.13026181 0.0851374 -0.017019624
-0.016880974 -0.027683837 -0.03241449 0.040436246 -0.031173423 -0.049014185 -0.013809792 0.03779991
0.03742379 0.07596038 0.094135 0.07183176 -0.015328783 -0.041534897 -0.012160163 0.046293378
00000000: b24e febc 5fcf 173d a1c6 b13d 01d8 ff3b
00000010: 9f82 2c3c f5bc 6f3a 1deb 923d c8c7 cb3b
00000020: 59a3 8abd 12b6 e63a 7f7b d83b 0d8a 383d
00000030: 2cf9 463c f80a ebbc 80e2 bf3c fcfd 8f3c
00000040: e625 be3d ab3d 2dbe 322b b23c b7cc 133d
00000050: 9793 b93d 7ca6 5a3d df0b 3ebd 922f aa3d
00000060: 0280 b53c a614 733d 1ce2 003d b3d0 9bbc
00000070: 93e7 f3bc d392 95bb 7975 4c3d f93f a63c
00000080: e87d 353d 385a 0ebd 3d95 9bbd bac1 273c
00000090: 8506 bebc c9d4 9ebd 3f1b 023d 50d3 e2bc
000000a0: 9628 a9bc 3aff dbbc 087f c23c 92a6 c03c
000000b0: 1492 afbc 2244 203d 52a2 02bd e239 b13c
000000c0: 6275 88bb 5919 8ebd 319a d0bc 1d0e 9dbd
000000d0: 9af4 d33c 1e6c 87bc dca8 683b 9775 19bd
000000e0: 71ef 383d 4eec 0d3d 069a 2ebc 4765 ed3b
000000f0: 3808 f93c 8b80 81bd cd6d 71bd fb80 8bbc
00000100: c047 a73c cdb0 4dbd dc19 4c3c f7eb 5cbd
00000110: a42c 1fbd f5a8 bcbd 31e0 86ba b936 373d
00000120: 2a58 5cbd 8491 13be 9b36 0abd 5353 23bd
00000130: ef86 97bd 3b69 f2bc ddb7 f3bc 0389 363d
00000140: 69fa c93d 90c7 3e3d 2260 4cbd c597 38bd
00000150: eab7 923d a153 3439 daf3 683d da61 87bc
00000160: 5d57 3abd 4002 013e 114e 99bd b556 633c
00000170: f999 7dbd f76b 31bd 7a0f 1abd f4b3 0f3c
00000180: 4097 dcbd fa9a 813b b7a4 923d 82b6 49bd
00000190: ba89 19be 80a8 a4bc 707b 28ba 4899 d43b
000001a0: c4b1 9a3d 60be b7bc cce9 a2bd 2fae 903d
000001b0: 33c6 babb 7204 e23c b046 563c 5729 743d
000001c0: bb19 87bd 0241 d53c 1779 0dbc 3d59 ef3c
000001d0: f667 fe3c f24f 313b 2f5f 27bd 9a77 c63b
000001e0: 937a cf3b a3b6 683d a33e aebc 47b5 173d
000001f0: a899 c43d 04b3 a43b c4bf 643d c35f 35bd
00000200: 9ab4 89bd 11ff 2abd b06e b9bb 6012 44bd
00000210: 5fde 10bd df34 663d 5f43 01be 0deb 88bb
00000220: 15cb d7bc da8c 663d 79af 8abc d7b1 a23c
00000230: cfa1 883c 5962 1cbc 1954 153d 7524 bcbb
00000240: 051e cebc 49be 093d 5559 d1bc 849c b4bc
00000250: bfd7 1c3d 098d 413d 54d7 59bd 9792 4c3d
00000260: 78b1 a33c 25a9 bb3c a9a0 1bbd b709 99bd
00000270: d658 f2bc 01bd 95bd 4a20 233d e5c1 863d
00000280: ba92 783d b242 37bd 09d2 91bc 1de3 f63b
00000290: 90cc 5abd 0612 ec3c c97c 743d 7c4a 9abd
000002a0: faea a7bc 299d 25bd f5c6 a43b 9689 8e3b
000002b0: cf40 d3bc 96f8 e0bc ebd2 ce3c 6ae8 fbbc
000002c0: 0aec 0b3c d52d aa3c b090 9a3d 5330 d93c
000002d0: 0ae9 69bd dcc4 b83c 24d7 e2bc 9c16 eb3c
000002e0: 4f1a 08be 1441 7bbd 0654 d8bb fd21 d53d
000002f0: fe97 00be f015 babd 4665 903a 4bd3 29bd
00000300: 690e 263d 87d2 2a3d 1e71 493d 0e04 cd3c
00000310: 2f1d 713d 07b7 a73d de77 2ebd 86f5 98bc
00000320: 2bd1 f03c b9c6 d0bc c901 fe3b 54cb 1dbd
00000330: 637e 75bd a6cd 2bbc cb5d 4f3a 007d 063d
00000340: 95fe d9bc 834f c2bb b695 453c 75b7 f73b
00000350: a924 3abd 3691 cf3b 8a2d 8dbc bfae 46bd
00000360: 1ecc ca3c 195f b33d 660e 683d df52 cfbd
00000370: 6f31 9b3d 90f7 433c 0e48 943c c60d 4abd
00000380: 4ef7 01bd 2157 44bd 9ab5 09bd b808 9abd
00000390: da56 7abd 18c8 9a3c 4a2e c9bc fcad 57bd
000003a0: 2d88 173d 2518 873d 2662 41bd a6c2 d03d
000003b0: e5a1 c13d 5a63 05be 845c ae3d bd6c 8bbc
000003c0: f849 8abc 37c9 e2bc 0ec5 04bd 7aa0 253d
000003d0: 685f ffbc 19c3 48bd 7742 62bc 14d4 1a3d
000003e0: b049 193d 1e91 9b3d dac9 c03d 881c 933d
000003f0: 9325 7bbc 7f20 2abd 6c3b 47bc 209e 3d3d

fc3.weight f4 [2, 300]
-0.096596606 -0.21612659 0.046701368 -0.13333277 0.021717148 0.030841457 0.035974775 0.010532094
-0.2633086 0.31152162 -0.049216885 -0.09666519 0.0060559004 -0.19391267 0.025359582 -0.5943565
0.027926717 0.046129275 0.090837225 -0.064578824 -0.19039206 0.11026581 0.014650911 0.035804223
-0.072954476 -0.105946794 -0.11661501 -0.1523221 0.012004642 -0.058437496 0.02504945 -0.22714171
-0.16731098 -0.3253895 -0.03738675 -0.08375362 0.022688515 -0.43884835 0.031347692 -0.06429279
0.051275916 -0.42529747 -0.12373751 -0.20856309 -0.2712549 -0.13287641 0.029302632 0.0038330331
-0.29199716 -0.14252175 0.007563472 -0.6125614 -0.40930453 0.024741476 0.0007802739 -0.30793276
-0.22921187 -0.04982175 0.019652113 -0.30415654 0.57659847 0.24644087 -0.08890556 -0.48792323
0.029671866 0.036333017 -0.4370595 -0.12961976 0.16179073 0.29008523 -0.25337088 -0.11014235
-0.24186778 -0.2520383 -0.007141096 -0.13006102 -0.13888647 0.01501345 0.009034325 -0.4242905
-0.30993757 0.057414193 -0.37499756 0.07988867 -0.53186154 -0.1966969 -0.393058 0.081429996
-0.074412145 -0.030094866 -0.25293967 0.030933065 -0.18301462 -0.022982042 -0.24649955 -0.032128133
-0.25884753 0.0056614527 -0.5880186 -0.26946613 0.104731135 0.29465958 0.0010151239 -0.26229903
-0.53571445 0.024305284 0.23724967 -0.09982646 -0.018754391 0.23056199 0.004956589 -0.0319182
-0.21173899 0.03206829 0.028977435 0.015026971 0.027354915 -0.2683043 -0.060934037 -0.13484707
-0.07160869 0.029267818 -0.0068256953 0.025255607 -0.081379116 0.03979424 -0.118491456 0.102444746
0.3208704 -0.08066671 -0.36904925 -0.18530887 0.034498837 -0.07640212 0.15420774 -0.13010344
0.035176255 -0.1440842 -0.056945115 -0.1526365 -0.031316053 0.21372908 -0.012074375 -0.27068156
-0.14020716 -0.129294 0.17190026 -0.06871739 -0.41689742 -0.119020104 0.07469663 0.013835992
0.029399615 -0.05001593 -0.019901134 0.058260567 -0.07455852 -0.5466416 -0.00063146075 -0.22450301
0.060191426 -0.02641156 0.4640344 -0.2987129 -0.2638461 -0.426902 0.028514316 -0.1653355
0.014588012 0.09163817 0.023988301 0.05083691 0.017801156 -0.08326361 -0.030987572 0.24992383
0.015051649 0.025231825 -0.306189 0.017778309 0.11291712 0.123981714 0.027256506 0.017927697
0.06399433 0.37703368 -0.23070112 -0.29717967 -0.21250752 -0.07843924 0.06395285 -0.11751635
0.007356696 -0.18541956 -0.11815657 -0.15458366 0.012303063 -0.22845191 0.030780336 -0.2941732
0.022412293 -0.22339521 -0.06396147 -0.05523671 -0.08784605 -0.022515737 0.31887716 0.043325614
0.010414753 -0.048692588 0.024418255 0.029393725 -0.03580718 0.028878275 -0.05129352 -0.14385107
-0.08667516 -0.2506773 -0.061971974 -0.26636678 0.03160134 -0.079684325 -0.15160534 0.009653844
-0.011693613 0.47852513 -0.003089837 0.09183071 -0.10016998 -0.18480706 -0.07050708 0.033003237
-0.7012829 0.03222972 0.053002052 0.03793445 -0.19255115 -0.414332 -0.28944594 0.024441797
-0.20136663 0.0566312 0.022581441 -0.45565632 -0.187237 -0.20641392 0.008585884 -0.33465368
0.008242692 -0.5590442 0.02719547 0.03673202 -0.12560438 0.023505902 -0.07480258 -0.012980367
00000000: 71d4 c5bd 4a50 5dbe ef49 3f3d 6388 08be
00000010: 29e8 b13c 39a7 fc3c 495a 133d ce8e 2c3c
00000020: 63d0 86be c37f 9f3e a597 49bd 66f8 c5bd
00000030: 9370 c63b 0b91 46be e6be cf3c bf27 18bf
00000040: 92c6 e43c 0df2 3c3d de08 ba3d e741 84bd
00000050: 23f6 42be 0ad3 e13d 600a 703c 73a7 123d
00000060: 2869 95bd a2fa d8bd dad3 eebd 53fa 1bbe
00000070: 1eaf 443c 285c 6fbd 8134 cd3c d697 68be
00000080: 9253 2bbe 7499 a6be d922 19bd 0587 abbd
00000090: 44dd b93c bbb0 e0be 7066 003d f0ab 83bd
000000a0: b206 523d 97c0 d9be 176a fdbd 9091 55be
000000b0: ece1 8abe c110 08be 130c f03c a033 7b3b
000000c0: a780 95be 39f1 11be 00d7 f73b d3d0 1cbf
000000d0: 5d90 d1be a3ae ca3c 4c8b 4c3a 5da9 9dbe
000000e0: 84b6 6abe e411 4cbd 78fd a03c 68ba 9bbe
000000f0: f59b 133f ff5a 7c3e 1e14 b6bd 13d1 f9be
00000100: 6a12 f33c eed1 143d 43c6 dfbe 0bbb 04be
00000110: 78ac 253e 0d86 943e d4b9 81be 5092 e1bd
00000120: 30ac 77be 2a0b 81be dbff e9bb b72e 05be
00000130: 4138 0ebe f9fa 753c b504 143c 9b3c d9be
00000140: 23b0 9ebe 252b 6b3d aeff bfbe ac9c a33d
00000150: 1428 08bf ea6a 49be e63e c9be c5c4 a63d
00000160: 6565 98bd 8289 f6bc 4f81 81be 5767 fd3c
00000170: 2f68 3bbe d644 bcbc 616a 7cbe ca98 03bd
00000180: aa87 84be b583 b93b 6388 16bf 77f7 89be
00000190: 477d d63d 9fdd 963e e80d 853a 0f4c 86be
000001a0: 9524 09bf e01b c73c 94f1 723e d171 ccbd
000001b0: cfa2 99bc 7118 6c3e e26a a23b a9bc 02bd
000001c0: 1bd2 58be 0a5a 033d 1662 ed3c af33 763c
000001d0: 6a17 e03c 2e5f 89be f895 79bd 5a15 0abe
000001e0: 94a7 92bd 10c3 ef3c 15aa dfbb d9e4 ce3c
000001f0: 18aa a6bd 49ff 223d a6ab f2bd 8dce d13d
00000200: 2049 a43e 9734 a5bd 06f4 bcbe 9cc1 3dbe
00000210: a74e 0d3d b778 9cbd a2e8 1d3e d639 05be
00000220: fa14 103d cf8a 13be 483f 69bd be4c 1cbe
00000230: 4345 00bd ccdb 5a3e 99d3 45bc c696 8abe
00000240: 7792 0fbe a565 04be 9f06 303e b4bb 8cbd
00000250: 9473 d5be d0c0 f3bd 8cfa 983d 5bb0 623c
00000260: 76d7 f03c 81dd 4cbd b407 a3bc a2a2 6e3d
00000270: 23b2 98bd b4f0 0bbf 9d88 25ba 1ee4 65be
00000280: 498b 763d 0e5d d8bc eb95 ed3e e6f0 98be
00000290: d616 87be e692 dabe db96 e93c b64d 29be
000002a0: 8f02 6f3c cbac bb3d 1d83 c43c 5d3a 503d
000002b0: bbd3 913c 1d86 aabd a6d9 fdbc 08ec 7f3e
000002c0: 319b 763c f9b2 ce3c cec4 9cbe d1a3 913c
000002d0: 1741 e73d 20ea fd3d 0949 df3c 1bdd 923c
000002e0: 760f 833d 8f0a c13e ea3c 6cbe ef27 98be
000002f0: 929b 59be c1a4 a0bd b6f9 823d 69ac f0bd
00000300: 7010 f13b a0de 3dbe 12fc f1bd 2e4b 1ebe
00000310: c992 493c 4cef 69be 0b27 fc3c df9d 96be
00000320: fc99 b73c b7c1 64be 3bfe 82bd e33f 62bd
00000330: a1e8 b3bd ec72 b8bc de43 a33e 3376 313d
00000340: a4a2 2a3c e171 47bd cb08 c83c 1ccb f03c
00000350: 8daa 12bd 2292 ec3c 2719 52bd b24d 13be
00000360: bf82 b1bd c658 80be 53d6 7dbd 3a61 88be
00000370: 6870 013d 8931 a3bd 6e3e 1bbe 282b 1e3c
00000380: 9196 3fbc 3f01 f53e dd7e 4abb bd11 bc3d
00000390: eb25 cdbd 103e 3dbe 0466 90bd 672e 073d
000003a0: 4787 33bf 5003 043d ae18 593d 2761 1b3d
000003b0: 212c 45be 5323 d4be 4232 94be 2a3a c83c
000003c0: 0e33 4ebe 1ef6 673d b7fc b83c c94b e9be
000003d0: 0ebb 3fbe 2c5e 53be cfab 0c3c ba57 abbe
000003e0: 5b0c 073c 851d 0fbf 09c9 de3c 5174 163d
000003f0: 6f9e 00be 738f c03c 1832 99bd 9bab 54bc

fc3.bias f4 [2]
0.05951775 0.03701068
00000000: e2c8 733d 8398 173d
